Hoang/Reference/Deep Learning-based Satellite Data Retrieval/Sample Code/Polarimeter_Prediction_FNN/Models/RegressionModels/DoubleHead.pth (torch, 821474 bytes, 14 tensors)

shared_backbone.0.weight f4 [256, 14]
00000000: 5491 46bf b59a bf3e 6df8 65bf cce8 44be
00000010: 1f78 75bb a95a 03bd 9ee8 ba3c 732d ee3c
00000020: 0a18 633a 5a49 82bb 76df c03a 72a3 6abc
00000030: 5a91 eabc adbd 04bc 4e72 153d 6003 283e
00000040: 30eb 5c3d 6d84 ecbe 5020 d7bc 3739 0ebd
00000050: 55f3 f53c a09d a23e 2b7c 58bc caa4 40bd
00000060: aad1 a7bc 4e1b 63bb 55bd fb3a e3c1 f93b
00000070: de3b ecbd 74e9 20be 855f c3bd 57c6 d23e
00000080: a1f6 bb3d b765 d8bd e040 553e d35c b83c
00000090: dc39 c23b 7537 773e e06f 9cbb 0657 5fbd
000000a0: a592 f7bc f24b a7bb c0ed fe3e dfb1 02bf
000000b0: e058 f33e 952e 9cbc bc81 98bb 6ef2 a0bb
000000c0: f70d baba a4a7 12bc b8a6 f4ba cc27 48bc
000000d0: 67d1 77bb 9780 21bb db86 083d c030 393b
000000e0: 0903 b7bd c362 cc3d 2d40 3bbe b5fa 753e
000000f0: c05c 75ba e0c4 723d 272c aa3d bc66 afbb
00000100: f128 5d3b edbc aebc be07 7ebb 57a2 bf3e
00000110: 63b6 9bbc 7d21 cd3b f81b ccbe 839d 9d3e
00000120: f66b febe ca4a 043f 1349 bb3c e671 943d
00000130: 9dc8 24bb 626d 4c3e 1bf5 edbc 9cd1 773d
00000140: 4ed9 22bc d1e6 143d 5d25 85bb 1d51 0d3d
00000150: 43b7 a1bf abca 263d 4733 bcbf 6396 633e
00000160: 928f 13bd adde b0bd a2f0 743d a408 143d
00000170: b098 18bd 8d0b 2dbd 13f6 10bb a17e 18be
00000180: 0019 5dbd 5772 d83b 313c 123f 5ffa 97bd
00000190: ed3c b43d 6d8e da3a abb3 223a ca94 e83a
000001a0: 48e6 883b e43a 9a38 3b03 67ba 9027 bd3a
000001b0: 9861 e3ba f942 a53b 08f7 943c 9724 daba
000001c0: 7ecf abbc ccd3 6c3c 1e46 57be c055 6e3e
000001d0: 2268 babe 782e e6be 35d1 de3e 49aa 96bd
000001e0: a9c8 01be 500c 42be ee1e acbe 216f 94bf
000001f0: d74c 16be 9af7 10bd 4ba2 483f baac be3c
00000200: 8bec f9be 5f33 d3bb 12ae 10ba d0d1 d8bb
00000210: 0e56 0bbb ab0b 363b 3c8b 8bbb b572 d3bb
00000220: aec1 bc3b 0644 99b9 e40c 46bc 3ad6 bf3b
00000230: ce75 2ebe 5873 10be 7b37 81be 77e8 1f3e
00000240: 0e61 f4bd ab71 8fbe 50c1 d4bd 767f 26be
00000250: 7406 9e3d 84b9 8b3d 9f93 29be 852f dabd
00000260: 32db 6bbc 0a52 dd3c 8ec1 a13d d786 bfbd
00000270: b5e5 b2bf 2d7f b13e f2da 973c bf31 383b
00000280: 19cf cc3b 6f44 2f3e 175f d63b 979e d63c
00000290: a87b 32bc 264a 30bd 9643 a2bb fa62 023c
000002a0: 657a 883e 86d0 0ebe bfec 093f 2a34 86bd
000002b0: b4e9 b0ba aa41 a9bb dd7c 6c3a d6a3 ccbc
000002c0: f582 b13a 566f 33bb eb27 903b c295 b0bb
000002d0: b97d 82bc da7f 73ba ba3f b5be 8f2d df3c
000002e0: 2de4 e8bb c9ca dfbc 2c46 133c 0be9 853c
000002f0: c3c6 853b dd14 383e c22c 2d3c 5bc6 28bd
00000300: 1b32 cfbc b6b5 e6bb e948 10be fa73 1cbd
00000310: 7eca a83e ba88 f53b 666a a53e b5b3 a23e
00000320: 9deb 233c 2106 303e 55a4 6cbd 5e74 48bc
00000330: 04cf 673b f41f 94ba 079f c33b aa33 643d
00000340: c074 b13c 0cf6 01bb ad9f 8ebe 4dd1 37be
00000350: c738 dc3d 2a68 e9be 6004 fe3b 46d2 3a3d
00000360: 567e 2dbc 8291 3ebd cc4a 1a3c fd7b 853a
00000370: 2882 983c 60ec 253c eff8 493d 3765 d5bc
00000380: b89d 24be 4a82 3abd 41a5 35be 6619 ea3e
00000390: a261 eebd ff93 60bb a8a5 34bf c192 3a3d
000003a0: adf0 8eba 3d75 40be ee3e c9bb b688 8b3d
000003b0: 6f11 9dbc 22e1 18bc f8e2 49bc 184f bb3c
000003c0: dff2 b73c 2425 88be 3cfb e3bc 59af 85be
000003d0: e913 3a3e a727 7a3a 75ce d9bb 9c8f 86bd
000003e0: ca46 77bc 2dc7 dcbc f4ef cdbb c83c 88bb
000003f0: e3e1 37bd 60e2 8abe ee25 5abd c097 bebc
-0.77565503 0.3742272 -0.8983219 -0.1922943 -0.003745563 -0.032068882 0.022815999 0.029074406
0.0008662945 -0.0039760293 0.0014715034 -0.014321195 -0.028633762 -0.008101863 0.036485963 0.16407537
0.05393523 -0.46194783 -0.026260525 -0.034722533 0.030023256 0.31760883 -0.013213198 -0.047032155
-0.020485718 -0.0034653726 0.0019206206 0.00762199 -0.11534856 -0.15714055 -0.09539703 0.41166946
0.091779 -0.105662756 0.20825529 0.0225052 0.0059273075 0.24142249 -0.0047740787 -0.05452635
-0.030221293 -0.005105489 0.49790764 -0.5105266 0.47528744 -0.01906518 -0.0046541374 -0.0049117124
-0.0014194836 -0.008951101 -0.0018665409 -0.01221652 -0.0037814023 -0.0024643296 0.033331733 0.0028257817
-0.08936126 0.09979775 -0.182862 0.24021418 -0.0009359829 0.059269786 0.08309203 -0.005352823
0.0033746327 -0.021330321 -0.003876194 0.37428543 -0.019007867 0.0062600956 -0.39865088 0.30784234
-0.49691743 0.5167662 0.022861993 0.07248287 -0.002514399 0.19963601 -0.02904754 0.060502633
-0.009939505 0.036352936 -0.004063292 0.034501184 -1.2634052 0.040720623 -1.4703149 0.22225337
-0.03602559 -0.08636222 0.059799798 0.036141053 -0.03725499 -0.042247344 -0.0022119328 -0.14892055
-0.05397892 0.0066054272 0.57123095 -0.07420801 0.08800683 0.0016674526 0.0006206582 0.0017744538
0.0041778423 7.3542615e-05 -0.0008812432 0.0014431346 -0.0017347811 0.005043384 0.0181842 -0.0016642985
-0.020972963 0.014454793 -0.21022841 0.23274899 -0.36407572 -0.44957328 0.43518987 -0.07356698
-0.12674202 -0.1895001 -0.33617347 -1.1596414 -0.1467775 -0.03539238 0.7837264 0.023275722
-0.4881328 -0.006445333 -0.00055191026 -0.0066168085 -0.002126101 0.002777795 -0.0042585414 -0.006452883
0.005760393 -0.00029233115 -0.012088034 0.005854395 -0.17037126 -0.141065 -0.2523764 0.15616022
-0.11932574 -0.2801641 -0.10388434 -0.1625956 0.077160746 0.06822494 -0.16560219 -0.10653595
-0.014395522 0.027016658 0.07898246 -0.093518905 -1.3976351 0.3466734 0.018537018 0.0028105823
0.006250274 0.17115949 0.0065420973 0.026198668 -0.01089374 -0.043039463 -0.0049519045 0.007958168
0.2665588 -0.13946733 0.5387687 -0.06552918 -0.0013497383 -0.0051652985 0.00090212916 -0.024980467
0.0013543057 -0.0027379594 0.00439929 -0.0053889463 -0.01592909 -0.0009288766 -0.35400182 0.027243404
-0.007107279 -0.027318375 0.008988898 0.016346475 0.004082532 0.17976709 0.010569753 -0.04120479
-0.025292447 -0.0070407046 -0.14090313 -0.03819654 0.3296699 0.0074931057 0.32307738 0.3177773
0.010004905 0.17189838 -0.057773907 -0.012234775 0.0035371194 -0.0011301027 0.0059698853 0.055713333
0.021662116 -0.0019830493 -0.27856198 -0.17950936 0.10753017 -0.45587283 0.0077519864 0.04561069
-0.010589203 -0.046525486 0.009417247 0.0010184046 0.01861675 0.010127157 0.049309667 -0.02604924
-0.1607579 -0.04553441 -0.1773882 0.45722502 -0.11639716 -0.00342679 -0.7056527 0.04555011
-0.0010905467 -0.18794723 -0.006141535 0.06813185 -0.019173352 -0.00933102 -0.01232218 0.022864863
0.022454677 -0.26590836 -0.027829759 -0.26110342 0.18171658 0.0009542652 -0.006646926 -0.0657036
-0.015092561 -0.026950443 -0.006284708 -0.0041576363 -0.044893157 -0.27125835 -0.05325883 -0.02326572

shared_backbone.0.bias f4 [256]
00000000: a52e 813e 374f b3bc 189e a4be 098f c0be
00000010: 0aec b5be 6806 313e 9c45 923e fc2f 01bf
00000020: 4f8e 1f3e 6592 90be 593f 0dbe 169f 17be
00000030: 7d3d edbe 6356 053f 3423 bcbe 64a8 bf3d
00000040: 558c 3f3e 1e22 d93d bb37 ee3e fa59 f9be
00000050: 2a1e 78be ff67 f3be dc66 eebe 1e0d e5be
00000060: 0ac1 0a3f 4103 b3be 67d1 e03d 6f14 eabe
00000070: 9222 0e3f 8be0 6fbc 0192 123c 3de0 f93c
00000080: 4790 e13d e4ae 203f 681c ae3e 5300 4dbd
00000090: 6358 733d d543 be3e e81d 17bf 1f9c d4be
000000a0: 6c4e dbbe 20c2 153f 4d4d 143d 4cba d6be
000000b0: baf3 453e c25f 7cbe b5a4 43be a99d fcbe
000000c0: 43a5 a03e 2b8f 92be cc5f b33e 7e79 443e
000000d0: 3af7 423d b4dd 76be a863 013f f8e2 fc3d
000000e0: 54a6 c1be fe12 f53e 9293 dd3e e738 293d
000000f0: d356 153e 1162 efbe 338c d63e 59bd f43e
00000100: 1b53 53be 9ccf 9fbe 3a41 c43e 5e3b f9be
00000110: 2be6 02bf bf5a 15bd 431f bc3d 855a 413e
00000120: 9760 d2bd e4d9 f03d 00e5 d3be ce8b 68be
00000130: 5186 cdbe de97 803d 28a9 eb3d 401b 2a3f
00000140: 2b9f 5bbe 3bb9 153f 6232 1cbf 6146 e9bc
00000150: f3af b8be ad12 4ebe 85f9 bc3c 52df 293f
00000160: f73d 85be 497b 8f3d da6c e73e 8673 20be
00000170: 07ec f5be d1c1 8f3d 030c 52be b0ae a0be
00000180: a659 113f f185 8fbe 0d3a bfbd aca1 2a3d
00000190: 78ef 0bbf 3746 a03e e69f 903e 09ba 5abe
000001a0: 1add 21be 0207 a23e 1bb3 1abd 4d08 513e
000001b0: 6e5f 803e 1abb a6be 176b 9c3e 317b b2bd
000001c0: 78d2 c23e 143b f0bd e79c 2dbe f7bb 00bf
000001d0: 9330 c2be b4b4 b73e 286e 933e 7536 1e3f
000001e0: 0a5f 813d 77b3 273e c76b 7f3b 74fb f23d
000001f0: 5d28 e73d 0b85 f9be 23c4 0d3d 0707 443d
00000200: d181 7e3e ac0d d8be b2e4 8dbb f2b6 623e
00000210: 54dc 4b3e 6b42 e7be 8a49 473e 04a7 e93d
00000220: 6298 393c b144 3f3e 2a71 75bd 9cab 80be
00000230: a408 6e3e 7744 113d 069d 113d f1aa 2a3e
00000240: 5d15 e9be ea0f 8dbe 183b 18be a0ec 16bf
00000250: b8f1 0b3d f701 81be f362 f33e 0216 6fbd
00000260: 1317 7dbe 4c2f ab3e c1b9 2b3e c51f e63d
00000270: 9bc0 e9be 1fb3 b43e 84ef ecbe bd7a 7d3e
00000280: 2f7b cf3c 39d8 02be 81a9 e63e e4da 813e
00000290: a1f8 be3e 5ab1 ef3d 6454 d73b 3f2b 263d
000002a0: 6c75 87be 4f3f 32bd 7125 a9bd 3fb7 093d
000002b0: e900 5abf a7ea 9abe f50c c53e 4d75 2b3e
000002c0: 2958 03bf a367 0abe 75a0 c2be 4886 743d
000002d0: 60ac aebe 76b7 b03d 1e28 9a3e 9501 133f
000002e0: e1c7 183e 8383 3f3d dd54 dabc 1b95 863e
000002f0: fc0f 273d d228 f7be 7e69 973d c286 203e
00000300: e321 3b3d df0e b8be 6ab6 0b3e e56c 7a3d
00000310: 2a02 da3c 317f 33be 881c dd3e 8582 21be
00000320: dc26 1f3d ee54 fd3e c90a 0fbe 08a3 8c3e
00000330: 3733 a33e 2fb8 4dbc eafa 0fbe febc 52be
00000340: 396a 0b3f 4039 d5bd 6419 30bf 0715 8abe
00000350: 83ae ef3e 7bc6 0e3f 5547 97bd 2fd2 dbbe
00000360: 8687 71bd ad85 063f 5e42 9dbd 6304 c33e
00000370: d82a 19be 90f8 24bf 9129 b9bb 9789 12bf
00000380: 43b0 733e 7444 273f 47a5 d2be 1e6b 37bc
00000390: 67af 1fbe 9ae3 c23c 586c cb3d ddc3 cabe
000003a0: 3e55 0a3e ee7d d93e 1c70 d73e 5930 c13e
000003b0: 0796 a13e 2dda 7c3e da04 cabe d67c 523e
000003c0: 419d c83e eea7 ff3e d3e2 023f 7df7 423e
000003d0: eb48 b1be 63ab 7d3e e96b 9ebe 179f 07bf
000003e0: 7340 f6be b9e4 25bf c538 fd3a 5c7f 04be
000003f0: a072 d53c 07f9 803d 0ccf 0bbf e1ab bdbd
0.252309 -0.021888359 -0.32151866 -0.37609127 -0.35531646 0.172876 0.28568733 -0.50463843
0.1558163 -0.2823669 -0.13793696 -0.1480678 -0.46335974 0.5208494 -0.36745608 0.0935829
0.18705876 0.106022105 0.46526894 -0.4870146 -0.24230257 -0.4754028 -0.4656285 -0.4473657
0.54200804 -0.3496342 0.1097744 -0.45718715 0.555215 -0.014640938 0.008945943 0.030502433
0.11013847 0.6276686 0.34006047 -0.050049137 0.059410464 0.37161127 -0.5903001 -0.4152536
-0.4283327 0.58499336 0.036206532 -0.41939008 0.19331256 -0.24645904 -0.191058 -0.49339035
0.31376085 -0.28624853 0.35034025 0.1918697 0.047599055 -0.2410801 0.5054269 0.12347978
-0.3782221 0.47866052 0.4327665 0.041314032 0.14583902 -0.46754506 0.4190384 0.4780071
-0.20637171 -0.3121308 0.38331014 -0.48678106 -0.5113246 -0.036463495 0.0918565 0.18882187
-0.10272329 0.11760309 -0.4138565 -0.22709581 -0.40141538 0.06278966 0.11506873 0.6644783
-0.21447437 0.58485764 -0.6101438 -0.028475942 -0.3607174 -0.20124312 0.023068199 0.66356385
-0.26023838 0.07005937 0.45200235 -0.15669069 -0.48031637 0.070193894 -0.20512395 -0.31383276
0.5677742 -0.28031877 -0.09337244 0.04165809 -0.54662275 0.3130357 0.28246993 -0.2136003
-0.15807 0.31645972 -0.037768465 0.20413323 0.25072807 -0.32564622 0.30550453 -0.08714903
0.380512 -0.11730018 -0.16954385 -0.5028681 -0.37927684 0.35880053 0.2879498 0.61801845
0.063169554 0.16377054 0.0038974152 0.11864367 0.112869956 -0.48734316 0.03461088 0.047858264
0.24854209 -0.4219793 -0.004330241 0.221401 0.19908267 -0.4516786 0.19461647 0.11408809
0.011327835 0.18678547 -0.059922375 -0.25130928 0.23245484 0.035465684 0.03555014 0.16666771
-0.4552411 -0.27551204 -0.14866292 -0.5895481 0.034166068 -0.25196812 0.4753643 -0.058370598
-0.24715833 0.33434522 0.16770078 0.11236528 -0.4565476 0.3529291 -0.46276486 0.24753852
0.025327293 -0.12777795 0.45051196 0.25362313 0.37299064 0.11703749 0.0065713394 0.040568586
-0.26456773 -0.043517407 -0.082590945 0.033622023 -0.8515764 -0.3025715 0.38486448 0.16743965
-0.51306397 -0.13516097 -0.38013044 0.059698373 -0.34115887 0.086287424 0.30108732 0.5742429
0.14919998 0.04675628 -0.026651794 0.26285633 0.04078673 -0.4827333 0.07393168 0.15676406
0.045686614 -0.35948846 0.13643804 0.061139006 0.02661236 -0.17528988 0.4318583 -0.15772445
0.03885542 0.4947886 -0.13968958 0.27468133 0.3187501 -0.01255612 -0.1406056 -0.20579907
0.5445896 -0.1041131 -0.68788743 -0.26969168 0.4681283 0.5577161 -0.073866524 -0.42933795
-0.058967136 0.52547723 -0.07678674 0.38089284 -0.1495775 -0.64441776 -0.005650707 -0.57241195
0.23797707 0.65338826 -0.41141722 -0.011194972 -0.15594254 0.02379017 0.09932774 -0.39602557
0.1350908 0.4247889 0.4207772 0.377322 0.31559774 0.24692602 -0.39456826 0.20555434
0.39182475 0.49932808 0.51127356 0.19039722 -0.34625944 0.2477241 -0.30941704 -0.52977127
-0.48096046 -0.6480213 0.0019319287 -0.12939209 0.026055634 0.06297498 -0.54612803 -0.09261299

shared_backbone.2.weight f4 [256, 256]
00000000: ce67 073d 72a9 873d 0a4c df3c db0b a6be
00000010: b65e 183d d1da cd3e 0e2c 8b3d 3d84 17be
00000020: b41e c13d f899 84ba c559 49bd 230d 21be
00000030: 62e5 34be 5bcb e6bb 064b 923b 4dfd 013d
00000040: e43d b63d d284 0ebe a6c8 d03d abea 05bd
00000050: dfc5 0abe 3558 0a3e 83b3 c03e 6ff2 6d3e
00000060: 32d1 3d3e 7046 35be f085 0e3e 5bf1 0abe
00000070: 41e5 e13e 87cb 6cbf 40cd 603d 0e57 abbe
00000080: 32ae aebc 196e 413e 31b3 eabd 38c4 67bc
00000090: 9f1b 0e3e cd30 f4bc ec31 063d e8db d33e
000000a0: f4c9 3bbd 76e2 9f3e 4067 c43c 8bb6 45be
000000b0: fc55 04bc 4726 e6bc b9d3 8fbe 1887 8abd
000000c0: f232 76bd d3f0 033e f1b7 423c cee3 893d
000000d0: 687f dfbe 054b 36be 963a adbc 2e4f d538
000000e0: 26e8 2a3e eb54 f83d b9da eb3d c690 9fbd
000000f0: 3bc4 dd3d 6123 91be c40a 58be 6071 8b3e
00000100: 6b3f 7bbd 03f1 433e 47d9 8dba fc19 853d
00000110: 49d9 e6be a8aa 973d 38b5 8f3c ef34 6bbe
00000120: ea11 043e 182a 893c e3a1 64bd 1236 25bf
00000130: c6d8 8b3c 2830 8b3e 3f2d 4a3c 4ad1 973e
00000140: b584 15bf 9234 0e3c 0f94 85bf 4e96 82bc
00000150: ba22 e0bd cd1c 6c3d 208c 27be 381b 333e
00000160: 2a65 a0bd 21cc 473d bae2 8a3e de5b 06be
00000170: 8859 4b3e 48d1 5f3c b113 e0be 8000 2d3c
00000180: be46 873e 6c06 fdbb 6d8f 17bc fb88 1a3c
00000190: e761 fbbe 2b9a aa3b 3575 203d 3c7b 21bc
000001a0: 2b5f 0f3d 2469 2bbd 67c8 8b3d e8ca bbbd
000001b0: d89f 9dbd 364a 4cbb 500a 85bd 8e91 4a3e
000001c0: ad9b 863e 3588 73bd 4337 b0bc 8a68 59be
000001d0: 15e9 403d e249 a5bd 4e0e 2fbe 9048 403d
000001e0: 9731 c33d 66ae 053d d243 f7bd 281b 27be
000001f0: b7cb 653d 7631 483d 5545 ed3c 9d5d 593c
00000200: 003f 5cbc fc52 463e ffbb 1cbd b811 2c3d
00000210: 3dd1 94ba a6c6 57be 2f2f af3b 91b9 4c3c
00000220: c8b5 3abc 23b1 313d 5c9e 853d c978 01bd
00000230: 2b19 d13c ff31 1ebe 6f26 5a3e d69a 08be
00000240: 91ef 823c 13c4 a5bd e478 a23d d181 75be
00000250: 4287 77be a5a4 aa3c 47ed 053f ab58 333d
00000260: cafa a8bd d6e7 b6bd 54bd 6a3e d8e6 153e
00000270: fc3d 98bd d63b 0a3e cf0d c7bc 3d81 313e
00000280: dd2d b63c d8aa 2c3e 2c58 84bd 5cc7 943e
00000290: d3cf b73d 0c2e 61be 812c cfbd 55a5 c23d
000002a0: 785e 4b3d 014c 35bf 5f73 c33a d989 773e
000002b0: d446 053f 7f56 c9be 9ffa 30be 7fd9 ccbd
000002c0: 972c 81bd e4cb c2bc 79e5 913e 18b1 5f3e
000002d0: 8e62 56bd 3827 5bbd 3aa6 cc3d c988 183e
000002e0: 42a4 85be d142 82bd 6bb8 1d3e edff 2bbd
000002f0: 9c00 293e 308a 9d3e 26ee 6dbd 9d11 033e
00000300: f4d0 90bd 16cc 01be 4ce7 27bf 5522 86bd
00000310: 9022 ff3d a16d 30bd 5f08 83be 8922 353d
00000320: 488a 26bd a9ff 0f3e 25a0 873d 3433 833e
00000330: 5115 86bb 21ed 07be 013b cd3d 1265 853d
00000340: 530b 0abe d6fe 24bf a11f 87bd 399d 2c3e
00000350: 6729 6abd 542f 123e 1c57 a53d deea 60be
00000360: a973 82be 7fa6 153e 4475 ce3c ce7c 91bd
00000370: 14f2 623d 2afe 0abf 5378 f1bd 7958 af3b
00000380: 854a 8dbe 02b8 a33e eb71 07bf 30fc 8bbe
00000390: 0bac f5be cc2c 8ebe 8eb5 8dbc e0e5 a83d
000003a0: 6e1d cc3d 04be 143e 0220 67bd ed7e bb3e
000003b0: 9fef b93d 183a 08be 62d2 273e c1d1 3fbe
000003c0: 67fa b53c 3bb3 843e 1a5d 213d 355d 82be
000003d0: 85e4 c0be 4973 56bd 9cfd 1cbc dd7b a9bd
000003e0: ec3b e93d 71b2 d03d e669 60be 2809 f0bb
000003f0: 41e0 1d3d 6e46 a0bd 6469 60bd 6294 183e
0.03305798 0.06624116 0.027257938 -0.3243092 0.0371997 0.40206006 0.06795512 -0.14796539
0.09429684 -0.0010116687 -0.049157877 -0.15727668 -0.17665628 -0.007043285 0.00446451 0.031735707
0.088985234 -0.13917854 0.10194521 -0.0326945 -0.13552044 0.13510211 0.37636957 0.23237012
0.18536833 -0.17702651 0.1391828 -0.13568632 0.4412022 -0.9249806 0.05488324 -0.33464855
-0.021323297 0.18889655 -0.11459959 -0.014145903 0.13877724 -0.029808426 0.032762453 0.41378713
-0.045846894 0.31227463 0.023975015 -0.19307916 -0.008077141 -0.028094424 -0.2809122 -0.06764048
-0.06010718 0.12884836 0.011884675 0.067329034 -0.4365189 -0.17802055 -0.0211461 0.0001017138
0.1669012 0.12125572 0.115163274 -0.07791285 0.108284436 -0.28347304 -0.21097857 0.27234936
-0.061339777 0.19134907 -0.00108222 0.06499097 -0.4508765 0.07405597 0.017542467 -0.22969411
0.12897459 0.016743705 -0.05581845 -0.6453563 0.017071139 0.27185178 0.012339889 0.29651862
-0.5840562 0.008679526 -1.0435809 -0.015940811 -0.109441236 0.057644654 -0.16362047 0.17490852
-0.078317955 0.048778657 0.27126104 -0.13120982 0.19858372 0.013660736 -0.43765023 0.010559201
0.2642116 -0.007721713 -0.009250504 0.009432073 -0.4909813 0.0052063665 0.039174277 -0.0098560415
0.03500287 -0.041848317 0.06825333 -0.09169561 -0.076965034 -0.0031172163 -0.064961076 0.19782087
0.26290646 -0.05945607 -0.021510726 -0.21231285 0.047097284 -0.08070733 -0.170953 0.0469442
0.09530943 0.032637022 -0.120734826 -0.16318953 0.05610248 0.048875295 0.028963724 0.013266948
-0.013442755 0.19367594 -0.038265225 0.042009085 -0.0011353862 -0.21071872 0.005346201 0.012495414
-0.011395879 0.04338182 0.06524345 -0.03160933 0.025524696 -0.1544876 0.21303724 -0.13340315
0.015983375 -0.08094039 0.07933214 -0.23975302 -0.2417269 0.020830462 0.5231518 0.043785732
-0.08250959 -0.08930938 0.22923785 0.14638841 -0.074336976 0.13499388 -0.024298577 0.17334457
0.022238666 0.16862047 -0.0646213 0.2905835 0.08975186 -0.21990222 -0.1011591 0.09504191
0.04965064 -0.708191 0.0014911703 0.24173678 0.520612 -0.39323804 -0.17283104 -0.100024216
-0.06307333 -0.023778863 0.28495386 0.218449 -0.052340083 -0.0535042 0.09992643 0.1489593
-0.2610188 -0.063604005 0.15402381 -0.041992117 0.16504139 0.3076949 -0.058088444 0.12799688
-0.07071105 -0.12675509 -0.65587306 -0.06549517 0.12457764 -0.0430733 -0.25592324 0.04422239
-0.04065922 0.1406237 0.06622342 0.25625002 -0.0040918966 -0.13274051 0.1002102 0.06513418
-0.13480882 -0.6445135 -0.065978296 0.1685685 -0.05716839 0.14275867 0.080732554 -0.21964595
-0.25478867 0.14614294 0.025202401 -0.07103883 0.055406645 -0.54294074 -0.11790528 0.005351123
-0.27595916 0.31976324 -0.529082 -0.2734084 -0.4798282 -0.27768552 -0.017298486 0.0824697
0.09966551 0.1452561 -0.05642701 0.36620274 0.09078907 -0.13303411 0.16388848 -0.18732359
0.022214128 0.25917992 0.03939543 -0.25461736 -0.37674347 -0.05235604 -0.00958195 -0.08275578
0.11388382 0.10190285 -0.21915397 -0.0073253103 0.038543943 -0.078259334 -0.05478801 0.14900354

shared_backbone.2.bias f4 [256]
00000000: eb34 8ebe df89 10be 8529 89bd 2582 0cbe
00000010: 68d2 573e 3405 5dbd 18ed c6be f978 9e3e
00000020: 5e32 0abd 8c29 8b3e 3263 8dbd 8b45 f7bc
00000030: 0b85 8ebd ee8c 5ebd baa8 d93c 73ba 0fbd
00000040: 75be 0dba 1ac7 733e 991c 7bbd 0c3a dc3b
00000050: 56af aa3a 6282 ac3e addb b13d a7b2 9bbd
00000060: c79b fabc b9c3 d83c 8bc4 933c 667c 45bd
00000070: 4cbc 0ebc fb97 a1bc af1b d13d 4202 86bd
00000080: 53e8 36be 9daf 06bd dcd0 de3d 0bcd d43c
00000090: 5fd2 95bc 2de3 a2bd 2945 4e3e 0378 783c
000000a0: 2073 873d 5779 f3bd 13c1 e13c aa25 54bd
000000b0: 99c1 37bd 4797 993e 4061 02bd 60e8 c43e
000000c0: b82c ea3c 80f7 77bd 0acf 0c3e ad16 993d
000000d0: 345f e5bd 5f69 b53c f940 21bb d18c bebe
000000e0: 050f 593d bcad 1bbf acfa fb3b e04b 2bbd
000000f0: a499 1c3e 5280 82bd 371c c7be 4c55 22bc
00000100: ef62 ecbc 1475 5abd b77a 633d a1ee f4be
00000110: b3d8 413d 807c 933e 8194 7dbe 8e03 70be
00000120: 2ddb 9d3e ebd8 62be 03be 663e b620 97bb
00000130: fcaf a33d 1c13 49bd 5789 973d 7d57 8bbd
00000140: a689 9b3c f3e7 c83c bf05 d8be 0549 103e
00000150: c458 ddbc bfef dfbe 948e 693c 26b6 6e3c
00000160: 0b78 c03d f173 9a3c 49e8 8a3e 848e 3b3d
00000170: 37b5 ac3c b527 51be b3a2 f7bc 7c5b 773c
00000180: 39f7 e6bb 05df 8bbd 99a5 293c 84bf 12bd
00000190: 7cde 8dbc c32f 17be d0dd bfbc c152 83be
000001a0: 4bc6 c0be c0ee 133d daca 8abd 8826 f83d
000001b0: b101 a6bd d2a9 ae3d 21f0 483e 8de9 d7bd
000001c0: 8d2b 9b3e 4903 b1bd 3863 ddbd 24de 6bbd
000001d0: cda3 a6bc 2623 643c ce80 48be 6c15 19be
000001e0: 692f 1cbe 2139 c7be ea93 36bd eeee 2abd
000001f0: d2d3 3a3e 0ae0 2ebe daff 22bd 3bda 83bd
00000200: 8188 bd3c d9e8 0ebc ca08 d8bd 44a1 09bd
00000210: 7735 d1ba 7c9b 4abd 8398 cfbd c916 e2bc
00000220: ce16 8cbd f941 073c 9310 b8bd 84ec 1f3c
00000230: 96f7 e53b 827c 0f3e ae35 00bf ca73 853d
00000240: ca5d 313c 6528 8bbd a665 48bd 7ecf 56bd
00000250: 7625 f1bb 7bd5 a1bd 5dba 8fbd 8970 f93b
00000260: bd16 31bb 05de a5bc 52b0 81bd b717 2abd
00000270: 508c 2abd 39c6 54bc daca d03d 0afd 57bd
00000280: 9c44 55be cd49 cbbe e831 143e 62ea 94bd
00000290: 1f7d d0be 7e21 90bd 6473 be3d a751 f0bc
000002a0: 741b dcbd 7dea 05bd ff97 03bd e813 913c
000002b0: 4e7a be3b 4e00 18be 9f56 d23e b061 acbd
000002c0: 5769 c5bc 768e b53c 2c22 7dbd b2c7 4fbe
000002d0: 91d3 893d 19b7 8fbc f90f 09be 9405 6ebd
000002e0: 4ca7 82bc 9d67 eabd e6fa bc3c b582 dbb9
000002f0: d15c b0bd f58e 90bd 16b2 d8bd 38f2 6ebe
00000300: 87aa 4fbd b747 f5bd dfad 6b3d 16d0 b43e
00000310: bfce d83d b812 4fbe ceab 703a 7b71 39bd
00000320: 8815 9ebd 90bd 2fbd 4f85 08bd 7b27 ffbc
00000330: 78b2 313e 49a8 6dbe 653b a63d a048 6f3c
00000340: c335 85bd 9d63 c9bd 5e0f f4bd 6905 84bd
00000350: 1575 1abc e1c0 8ebd 647e 3f3d 9321 5cbe
00000360: 9f63 063e 944e d5bd b01e 003e acd9 a23e
00000370: 3171 b3ba f80e f43e 9631 c3bc be5c 80be
00000380: 338d c1be 89b0 5dbd 5b76 97bd 68ed 9cbd
00000390: e862 b1bd a233 ea3e 5ba2 50bd d08d 8cba
000003a0: 0a54 0fbd 9458 b23e e813 92be 8410 973e
000003b0: 95d2 0c3e 00d3 07bd 85df 4f3e 4a7b 8dbd
000003c0: 0f6e febd f0a1 a1bd 1ee7 bc3e 7b8c 4abd
000003d0: c4f2 433e 7fdc 9bbd 1fc4 43bc adf2 0e3e
000003e0: 7327 68be 9e74 96bd 4c98 be3d 8a1d 0bbd
000003f0: 025f 61bc 7029 623c 9981 3cbd 1f67 18bd
-0.27774748 -0.14115094 -0.06697372 -0.13721521 0.21076357 -0.05396004 -0.38852763 0.3095167
-0.03373944 0.27180135 -0.06903686 -0.030184528 -0.0695897 -0.05433362 0.026569713 -0.03508992
-0.00054071035 0.2380642 -0.06130657 0.006720787 0.0013022225 0.33693224 0.08684478 -0.076024346
-0.030591859 0.026460515 0.018038055 -0.04821434 -0.008711886 -0.01972579 0.10210358 -0.065433994
-0.17862062 -0.03288232 0.108796805 0.025976678 -0.01828879 -0.079534866 0.2014357 0.015165332
0.06613755 -0.11888378 0.027557885 -0.05179373 -0.044862363 0.29998228 -0.031831026 0.38458538
0.028585777 -0.06053877 0.13750854 0.07475028 -0.11199799 0.022144971 -0.0024605377 -0.3721681
0.05299284 -0.6081197 0.0076897945 -0.041820407 0.15292984 -0.063721314 -0.38888714 -0.009908032
-0.028855769 -0.05333431 0.055536952 -0.4783831 0.0473258 0.28805923 -0.24763681 -0.23438856
0.3083128 -0.2215306 0.22533421 -0.0046120537 0.07992551 -0.04909049 0.07399242 -0.068037964
0.018986534 0.024524665 -0.42191884 0.14090355 -0.027019866 -0.437376 0.014255185 0.014569795
0.093978964 0.018854113 0.27130345 0.04579021 0.021082504 -0.20425303 -0.030228948 0.015097495
-0.007048514 -0.06829647 0.010354423 -0.035827175 -0.017318003 -0.14764313 -0.023421198 -0.25649074
-0.37651286 0.03611636 -0.06776972 0.12116724 -0.08105791 0.085284844 0.19622852 -0.10542593
0.30306664 -0.08643205 -0.1080994 -0.057584897 -0.020341778 0.013924396 -0.19580385 -0.14949578
-0.1525246 -0.38910773 -0.044574656 -0.041731767 0.18244866 -0.17077652 -0.03979478 -0.064381085
0.02313638 -0.008722507 -0.105485514 -0.03360106 -0.0015961368 -0.049464688 -0.10136511 -0.027598755
-0.06840287 0.008255475 -0.08987536 0.00976098 0.00701804 0.1401234 -0.5008191 0.06516226
0.010825584 -0.06794814 -0.048925065 -0.052443974 -0.007359202 -0.07902046 -0.07017968 0.007612292
-0.002702161 -0.020247469 -0.063324586 -0.041526522 -0.04163772 -0.012986713 0.10194941 -0.05273155
-0.20826954 -0.39704743 0.14472163 -0.072712675 -0.4072046 -0.07037638 0.09299353 -0.02933581
-0.10747424 -0.03269433 -0.032127377 0.017709687 0.0058129197 -0.14843866 0.41081712 -0.0841707
-0.024098082 0.022162657 -0.061800167 -0.20291021 0.06729806 -0.017543362 -0.13385 -0.05811079
-0.015948914 -0.11445544 0.023068856 -0.0004186832 -0.08611453 -0.07058517 -0.10580842 -0.23334587
-0.050699737 -0.11976569 0.057538863 0.35315007 0.10586309 -0.20221984 0.00091808743 -0.04527424
-0.077189505 -0.04290539 -0.033330258 -0.031146755 0.17353237 -0.23208727 0.08116797 0.0146047175
-0.06504395 -0.09833453 -0.119169936 -0.064463444 -0.009427329 -0.069703825 0.046751395 -0.21497183
0.1312394 -0.10415378 0.12511706 0.31806695 -0.001369035 0.4766767 -0.023827355 -0.25070757
-0.3780304 -0.054123435 -0.073956214 -0.07662469 -0.08661443 0.45742518 -0.050936084 -0.0010723416
-0.034992255 0.34833205 -0.28530812 0.29504788 0.13752206 -0.03316021 0.2030011 -0.06908281
-0.12423336 -0.07892215 0.36895078 -0.04945038 0.19135576 -0.07610416 -0.011948614 0.13959761
-0.22671299 -0.07346462 0.09306392 -0.033963718 -0.013755562 0.013803825 -0.04602203 -0.03720772

shared_backbone.4.weight f4 [256, 256]
00000000: cb70 8cbd 4616 89bd b42d 0c3d 62d2 a0bd
00000010: 3270 71bd 5f59 483d b7c1 dd3c 6848 29bd
00000020: 7358 b9bc dcca a13c 960e b4bc 9861 87bd
00000030: 46fc 4abd a43d a23c 66cd 71bd 281e 8339
00000040: 53b2 8cbd 15f7 073d f449 f6bc 4d55 523d
00000050: 9cad 58bd 5658 7b3c d661 433d 6bcd 26bc
00000060: fcd2 c5bc 48e3 353c 78e2 813c e142 343d
00000070: ca99 04bd 8cf6 903c 7c76 5cbd 86f9 46bd
00000080: 4ccd 3dbd 5b04 d93b bc51 acbc fe47 c03c
00000090: e012 293d 25f3 683c 5d4d 33bd 51a5 6bbd
000000a0: 6b7c 20bd 771d 5abd c141 05bd e8be ecbc
000000b0: 30c6 143d 644b 1fbd a1ea 16bd e94b 5cbd
000000c0: e7a1 2b3d efb1 5cbd b12f a6bb 0f5b 8cbd
000000d0: 30c6 233d af02 6ebc 693d 713d 736e 9b3c
000000e0: 0db4 fe3c 7b98 78bc aba6 75bd 0529 80bc
000000f0: 35c4 b83c 4077 e83c c760 5ebd 2980 0d3d
00000100: 0798 1abb bdc3 1e3d 9e90 863c 5945 4cbd
00000110: 7019 35bd 2ff7 233d 26ac f33b e114 a13b
00000120: 1750 2b3c e4b3 31bd e598 90bd f0bd 40bc
00000130: c648 fd3b 6291 3b3d fc28 973c 3794 503c
00000140: b63d 07bc 115d 653a 797f 5ebd 3fe4 86bb
00000150: 1d74 fabc 76f3 213d 2251 13bd a24e 583d
00000160: ec09 b6bc 02a9 d1bc e2ca 073d 4054 2e3c
00000170: dfab 3a3c 1147 78bd 6ef9 3bbd 37ff 393d
00000180: 6f37 893c c549 2b3d 8f30 e9bc 8397 183c
00000190: 44e2 433d c094 0a3d 1f82 233d 786f 6d3d
000001a0: 3cd8 9dbc 07e7 c9bc 1674 cd3c 27c5 a5bc
000001b0: f688 21bd fd0c 00bd 75b0 35bc 309c e73c
000001c0: d892 b1bc 6f7a 0f3d ebe8 113d c02b 92bd
000001d0: 12eb 78bd 4cb9 f2bc e84f ed3c 125c 873b
000001e0: 37c7 933a 4da5 e83c 8d9f 61bd 2a27 273d
000001f0: f8de afbc 6ddb a13c 07ae e93c 9bd2 f43c
00000200: acbf 323c aa04 173d 8413 24bd 66d6 b0bc
00000210: bd11 6fbc 6029 77bd d917 9e3c a4d8 b23c
00000220: 61ff 153d 35d2 083c 1a27 6fbd 622e bf3c
00000230: 7835 9abc 1124 2b3d a4fe 6dbd 3ac0 023d
00000240: d180 71bd cc25 3abc 4e4b 763d e76a a93c
00000250: 0da1 e13c 908a 43ba dc6a fd3c 147f 80bd
00000260: 1776 2b3d d55e 5dbd 9874 343d c785 e3bc
00000270: 6f0c 16bd f395 2fbd 1275 1e3d 514b efbc
00000280: f31e 82bd da3d 19bd 59f4 fdbc 9ad7 4e3d
00000290: 8e35 39bc eedd f03a 1a45 0d3d d11e 1e3d
000002a0: 314a 40bd ba1e 5a3d 984b 913c 180c 3c3c
000002b0: 89a1 40bd 9319 823c 79e4 96bd 4c8d af3c
000002c0: 3e37 35bd 0cf6 493d dac8 3abd 034d dbbc
000002d0: 80be 1bbd 2162 6cbd 829f 0ebd 2c8c 9e3c
000002e0: 8a2e 8abd f8df 4c3c 2964 223d 5c2e 173d
000002f0: 14d0 f7bc 2ad6 38bd 7ad1 4dbd 8faf 52bd
00000300: d975 eabc e0ee 57bd e156 36bb cf47 8dbc
00000310: 4ac9 12bc 8cc4 32bd 8dfe 0eb9 92e0 83bd
00000320: 549f f0bc 50e4 50bc 3053 413d 29e6 38bd
00000330: d8dd 0dbd c4ec 71bd 2130 bbbc eedf 97bb
00000340: c6a9 4fbd 15fd f5bc b7e4 54bc d7c8 79bd
00000350: 266d f73c e88b 213c 8402 2abd 9764 b4bc
00000360: 1325 84bd 3e46 0dbd 4a1c 75bd 2d6d 4abc
00000370: a757 3dbc dc51 2c3b e96d c6ba 565e 25bd
00000380: 5e12 19bd 1e56 6abd 4c45 ecbc 2673 7a3d
00000390: c026 57bb 8a40 2a3c b012 85bd 0b1c 65bd
000003a0: 99c0 4f3d 1565 fabc 8ec4 9dbc b4c1 68bc
000003b0: ba64 383d 601f f9bc bffd 39bd c750 5b3d
000003c0: 86f8 01bb a2b6 283d 5c9d 4dbc 6618 34bd
000003d0: 1db1 f7bb a0e1 0dbd a0d3 16bd 822d cf3c
000003e0: 042d 28bd e8bd 06bc b501 30bd fbd2 1c3c
000003f0: 3fb7 993c 0c02 3dbb 6911 36bd bf69 27bd
-0.06857451 -0.066937014 0.034223273 -0.07852627 -0.05894489 0.048913356 0.02706991 -0.041328818
-0.022625184 0.019750051 -0.021979611 -0.066104114 -0.049556993 0.019804783 -0.059033774 0.00025008735
-0.0686995 0.03319462 -0.03006456 0.05135088 -0.05289994 0.015340885 0.047700725 -0.010180811
-0.024148457 0.011101551 0.015855059 0.044009093 -0.032373227 0.017695688 -0.053823933 -0.048577808
-0.046338364 0.0066228337 -0.021035068 0.023471829 0.041277766 0.014218126 -0.04377495 -0.057530705
-0.039181154 -0.053250756 -0.03253341 -0.028899625 0.03632182 -0.038890257 -0.036844853 -0.05378333
0.04190245 -0.05388063 -0.005071603 -0.068533055 0.03998393 -0.014527007 0.058896456 0.018973565
0.031091714 -0.015173073 -0.0599734 -0.01564456 0.022554496 0.028377175 -0.054291513 0.03454605
-0.002358915 0.03876089 0.01642638 -0.049870823 -0.044213712 0.040030655 0.007436293 0.004915819
0.010456107 -0.043384448 -0.07060412 -0.011764035 0.0077296225 0.045792945 0.01845216 0.01273065
-0.008254459 0.0008749525 -0.054320786 -0.0041165645 -0.030572945 0.039538823 -0.035966046 0.052809365
-0.022221528 -0.025593285 0.03315247 0.010640204 0.011393516 -0.06061465 -0.04589217 0.045409407
0.016750066 0.0418184 -0.028465537 0.009313467 0.047823206 0.033833265 0.039919015 0.057967633
-0.019268148 -0.024646295 0.025079768 -0.020235611 -0.039437257 -0.031262387 -0.011089434 0.028272718
-0.021676466 0.03502887 0.03562252 -0.07137251 -0.060771056 -0.029629372 0.028968766 0.0041308487
0.0011274581 0.028399134 -0.0550838 0.040808834 -0.021468624 0.01975795 0.028525366 0.02988558
0.010909956 0.036869682 -0.040057674 -0.021586608 -0.0145916315 -0.060342193 0.01929848 0.021831818
0.0366205 0.0083508985 -0.0583869 0.023337547 -0.018824324 0.041782442 -0.058104172 0.031921603
-0.05896074 -0.011361551 0.06013041 0.020680858 0.027542615 -0.0007459307 0.030934744 -0.06274238
0.041860666 -0.054045517 0.044056505 -0.027773751 -0.03663295 -0.042867612 0.038685866 -0.029210718
-0.06353559 -0.037412502 -0.031000303 0.050498582 -0.011304272 0.0018376687 0.03448973 0.038603608
-0.046945754 0.05325196 0.017736241 0.011477493 -0.047029052 0.015881335 -0.073677965 0.02142968
-0.044242136 0.049306914 -0.045601703 -0.02677012 -0.03802347 -0.05771077 -0.034820087 0.019353949
-0.06747158 0.01250457 0.0396463 0.036909446 -0.030250587 -0.045126118 -0.0502486 -0.051436957
-0.028620647 -0.052718043 -0.002782278 -0.017246155 -0.008959124 -0.043644473 -0.00013637003 -0.06439318
-0.029372849 -0.012749746 0.047198474 -0.045141373 -0.034635395 -0.059063688 -0.022850098 -0.004634849
-0.050699018 -0.030027905 -0.012993983 -0.06098255 0.030203413 0.009860016 -0.041506305 -0.022020621
-0.06452384 -0.034490816 -0.05984143 -0.012355131 -0.0115565425 0.002629391 -0.0015138957 -0.04037317
-0.037371032 -0.057211034 -0.028841637 0.06114497 -0.0032829493 0.010391364 -0.06497705 -0.055934947
0.050720785 -0.030565778 -0.019258764 -0.014206339 0.045017935 -0.030410469 -0.045408007 0.053543832
-0.001983197 0.041189797 -0.012549724 -0.04396858 -0.0075589553 -0.034639 -0.036822915 0.025290255
-0.041058555 -0.008223988 -0.042970378 0.009571786 0.018764136 -0.0028840331 -0.044450197 -0.04087233

shared_backbone.4.bias f4 [256]
00000000: 552d 3abb 91c5 463e aba1 723c ca13 ccbe
00000010: 4e5a c3bd 555e 94bd da79 88bd 97ad d33c
00000020: 09e3 f0bc 1d1a d2be 71c2 013d 01ec 4a3c
00000030: 0244 443e 53d4 7cbe 5fa4 3bbc 7482 edbd
00000040: 6c21 95be b4b2 453e 4a6a a2bd b08a 1abb
00000050: 1c4d c2be bd5c 9f3e a011 da3c a794 a7be
00000060: 41d3 5fbe 7c48 7fbd 6b78 01bd 6940 a0bd
00000070: ac52 8cbc ee20 abbd 6bce de3d d39a 71be
00000080: 5847 f8bd 4603 403d b8b9 913e bfea 8fbe
00000090: 44d8 5bbd 385c 21be f782 b5be d8c0 15bf
000000a0: e496 5fbf 4889 1ebd d4f0 613c 5c27 f7be
000000b0: 121f 203e b61b 83be e31e 923e 443e c6bd
000000c0: bc4c be3c bf31 8cbd 0991 a73e d73d 9a3e
000000d0: 3632 74be e056 1e3d 8573 8bbe b252 6cbd
000000e0: bcd0 90bd 9285 24bd 6515 aebd c8b4 d83c
000000f0: 577a 62be 7557 b4bd dc3e 363e 160c 113e
00000100: 2666 10bd d171 3cbe 4a29 a7be c0e7 d0bd
00000110: c8a3 47bd f534 353c 481f 0fbe 8556 873e
00000120: 2d04 f9be c113 903e 047e 32be 4572 e0bc
00000130: 96e8 adbb 250d 103e 7fe7 9abe b933 f5bc
00000140: b995 c3bc 21ab 83bd 1be2 99bd bad2 653d
00000150: 02fa 73bd 26d5 b8bd 8a46 31bd f215 0cbe
00000160: 3ae5 75bd d4a1 743d 0d55 aabd 0b4d ffbe
00000170: 29eb a0bc 2844 0fbe e0ff f9be 426b c1bd
00000180: 4a0c 44be 7021 8a3e d465 4f3e a214 ffbe
00000190: a2d8 4abd 3481 9dbe 6184 cabe 9caa 333e
000001a0: 0656 b23e ecce a4be 06c0 043c d694 28be
000001b0: fe6d 78bd ac77 9bbe 7579 a73e 8c29 92bd
000001c0: 9a5a 633e 4d32 a8bd 2e0d cbbe 6977 7d3e
000001d0: 24b1 7f3e 8bb6 3fbd 37fb 803d 5190 77bd
000001e0: f1fe 9a3d 1a61 56bd 9a3c b23e 320a 59be
000001f0: e03c 14bf a11b 74bc 1d48 4dbd 9457 a0bc
00000200: 4590 51bd 532a d1bd 87db 1b3e a51b 50bd
00000210: 4bd3 f1be c2f8 283e 8556 2ebb e629 9d3e
00000220: 1bbf 92be bdb7 dbbd 423f 48bd f05f f7bd
00000230: 3ba3 213e f71c d0be 02a0 1e3e b58a 47bd
00000240: 6773 893d 0336 42be 6633 55be 87ca 1ebe
00000250: 8bce 883c caa6 52be 3853 733e 4a34 aebd
00000260: 4754 cfbc b3eb 3fbd b563 48bc 541b 09be
00000270: 4d10 8ebe 95f4 9c3e d375 acbb 363e 1cbd
00000280: 24c4 b4be 2f47 9a3c d301 93bd f6d1 bebd
00000290: 1815 bd3e 8f29 bdbe a2ce a5be ed6a 00be
000002a0: 754e 85bd 2016 f8be e0ff a4bd 0a6f 82bd
000002b0: f046 25bd 8f65 bebd 597e e3be ec74 dbbd
000002c0: f943 12bf ccba 563c 2304 88bd 0d81 72bd
000002d0: fe11 40bd cfbe 69bf dc3b 6ebd 76f7 a7bd
000002e0: d650 8a3c 8ad3 a1bd 21f6 383e 544f 3d3d
000002f0: d7b8 91bd 9a47 873c 39bd 563e 0b0e 763e
00000300: 7b5c 833b 3f9f 18bd 8f34 fcbe 4137 9d3e
00000310: 1fdf 06be cf0c 9f3c 7bdc d03d a335 14bf
00000320: b7ef 2dbd 4357 8cbd 1ea8 e23c e6f8 d53c
00000330: 8d81 56bd 51bc 47be 1b66 9b3e f46a 8ebd
00000340: 9d9c fdbe 26a9 0bbf ffe5 c83d aa42 a3bd
00000350: 5c88 b1bd e8f5 02bb ea04 d0bc 6dfb 413d
00000360: 5a5b a2be 1613 03be ea32 2b3d edc4 7fbd
00000370: 2cee d53a 48e5 a13e d573 1dbd 476a 76be
00000380: 12dc b8be 8139 653c 25f3 433e 9b39 babd
00000390: 0101 f5be 34fc 763e c6b1 94bd 4924 8ebd
000003a0: 1238 e4be 2099 49bd ae8f 8f3e bda7 343e
000003b0: 0800 88bd 8aa1 d5be 4f60 51bd 763a 7b3e
000003c0: 8ade cfbc ea48 f8bd c87b 19bf 1308 8ebe
000003d0: e16d 2dbe e383 033f db94 273e f1d3 2cbf
000003e0: 00c7 2e3e a379 fcbd 88d5 253c f79c 82bd
000003f0: 04f0 a8bd b6b8 3a3e 5816 843d 6294 823e
-0.0028408368 0.19411303 0.014809052 -0.39858848 -0.095387086 -0.07244555 -0.06663866 0.02583961
-0.029405134 -0.41035548 0.031679574 0.012385369 0.19166568 -0.2469037 -0.011452763 -0.115971476
-0.2912706 0.19306451 -0.07930429 -0.00235812 -0.37949455 0.3112544 0.026619732 -0.327306
-0.2185793 -0.062324986 -0.03160898 -0.07824785 -0.017129265 -0.0835589 0.10879215 -0.23594217
-0.12122983 0.04687812 0.28462005 -0.28108785 -0.053673044 -0.15757835 -0.3545148 -0.5849738
-0.87339616 -0.03870514 0.013790328 -0.48272216 0.15636852 -0.2560708 0.2853919 -0.09679845
0.02322995 -0.06845426 0.3272784 0.30125305 -0.23847279 0.03865707 -0.27236572 -0.057696052
-0.07071063 -0.040166445 -0.085001744 0.02645339 -0.22116981 -0.088057436 0.17797416 0.14164767
-0.035253666 -0.18402793 -0.3264869 -0.10200453 -0.04874018 0.011059989 -0.13976777 0.26433197
-0.48635998 0.2814007 -0.17430884 -0.027398238 -0.0053072674 0.14067514 -0.30254743 -0.02993189
-0.023875104 -0.064291246 -0.07513829 0.056109168 -0.059564598 -0.0902503 -0.043280162 -0.13680246
-0.06003306 0.059724644 -0.083170034 -0.49863467 -0.019643383 -0.13990843 -0.4882803 -0.09444286
-0.19145313 0.26978636 0.20253688 -0.4982043 -0.049523003 -0.30762637 -0.39554122 0.17545551
0.34831256 -0.3218912 0.008102423 -0.16463026 -0.06065177 -0.3036474 0.32709852 -0.07136831
0.2220253 -0.08212719 -0.39658493 0.24752583 0.24969918 -0.046804946 0.062979154 -0.060440365
0.075681575 -0.052338697 0.3481186 -0.21195295 -0.5790539 -0.014899165 -0.0501176 -0.01957301
-0.051162977 -0.10213151 0.15220462 -0.050807614 -0.47231516 0.16501144 -0.0026601863 0.30696028
-0.28661427 -0.10728405 -0.048888452 -0.120788455 0.15784924 -0.40647098 0.15490726 -0.048716266
0.067114644 -0.18965916 -0.20820388 -0.15506946 0.01670005 -0.20571437 0.23762214 -0.08506067
-0.025308741 -0.04685564 -0.012230803 -0.13389331 -0.27746812 0.3065535 -0.005263069 -0.038145266
-0.35305893 0.018832771 -0.07178082 -0.093173906 0.36930156 -0.3694577 -0.3238421 -0.12540789
-0.06509105 -0.4845438 -0.08056617 -0.06368835 -0.040350854 -0.092967145 -0.44432333 -0.107156605
-0.5713497 0.013106059 -0.06641414 -0.059205104 -0.04689216 -0.91306776 -0.058162555 -0.08201496
0.016884249 -0.07901676 0.1806264 0.04621823 -0.071153335 0.016513634 0.2097062 0.24028794
0.0040088273 -0.037261244 -0.4925885 0.30706218 -0.13171051 0.019415287 0.10198303 -0.57894343
-0.042464938 -0.06852581 0.027668055 0.02611966 -0.052369643 -0.19505431 0.30351338 -0.069539934
-0.4953355 -0.54554975 0.09809493 -0.079716995 -0.086685866 -0.0019982997 -0.025392968 0.04735892
-0.3171032 -0.1280025 0.041796602 -0.062443662 0.0016321591 0.3162024 -0.038440544 -0.24063979
-0.361054 0.013990761 0.19135721 -0.090930186 -0.47852328 0.24119645 -0.0726047 -0.069405146
-0.44574028 -0.049218297 0.28039306 0.17642112 -0.06640631 -0.41724807 -0.051117238 0.2453402
-0.02537467 -0.12123282 -0.599545 -0.27740535 -0.16936447 0.5137312 0.16365378 -0.67510897
0.170681 -0.12327888 0.010121711 -0.06377595 -0.08248904 0.18234524 0.06449574 0.25503832

head1.0.weight f4 [128, 256]
00000000: f214 0d3d 8fe5 19bd 58d9 af3c 32af c73b
00000010: 90c7 1b3c 2896 a4bc 0e17 633d 3837 68bb
00000020: 3460 3bbd af22 a13b e82c c53c d7cf 7f3c
00000030: b6a0 ffbb c601 093d 2086 1cbd db6c 78bd
00000040: 6a2f 213d b090 bfbc 9239 4d3d c717 49bd
00000050: fe3d 85bc c13a 2a3d d2b3 213d 42de 7ebd
00000060: a670 5cbd 0b6f 89bd 0016 2e3d d41c 2c3d
00000070: 712b 32bd 4041 81bc 5002 893c b927 86bd
00000080: 5b47 57bd aeb6 f83c 9177 58bc dc4a 4dbd
00000090: 2a21 2c3d 0a59 3e3c bfdb 743d b483 6fbd
000000a0: 60c8 333d 3af1 62bd d420 c4bc 8f3a 37bd
000000b0: b560 813c 43f6 753c f1c5 28bc f00a 01bc
000000c0: 5b24 59bd e18c 68bc 001d 22bd dee3 82bc
000000d0: 62f5 5e3c 3683 113d c4f6 0f3d a37a d8bb
000000e0: 34e6 d5ba 0ad7 183d cc64 12bd 0d6f 0b3d
000000f0: 2d17 d23b 072e c4bc 4859 58bc d242 aabd
00000100: 9499 19bd 38fb 983c 8f09 3abd ecc7 5cbc
00000110: b381 d8bc f31a eabc a262 f83c 00e0 80bd
00000120: 5fc5 4b3d 4a9a 8ebc 48ec c93b 27a9 acbc
00000130: 578d fc3c 944e b4bd 17ea d2bc ec58 f6bc
00000140: a896 353c a8ba 8fbc 28b3 2a3d 03af 89bc
00000150: 2078 a43b 5ec2 20bd 98f6 4ebd 0c63 dd3c
00000160: 8cf8 c1bc b148 52bd 90c9 e8b8 710d 363c
00000170: 55cf 073d a764 92bd ce2f 23bd 8259 5abd
00000180: ff42 79bb 15b9 803b a740 863b 040c 143d
00000190: 80f0 3cbd 2619 9dbb c2d8 66bd 6454 92bc
000001a0: 168e 11bb 160e 4fbd 6dd4 1d3c 5b43 80bd
000001b0: e9b1 2b3d c358 ea3c 619f 43bc dc44 68bb
000001c0: ce29 bcbc c42c 07bd 1fe7 133c 1539 9cbb
000001d0: da26 6d3b ee88 5a3d 0bc5 1fbd 0e43 3a3d
000001e0: 593b 21bd f14f f33b 6daf 9a3a f658 aebb
000001f0: 83fd bebd 10b3 45bc 2fe4 0b3d b252 b1bb
00000200: 9cdd 1bbd 09fd 953a 16a6 e3bd 7257 1ebd
00000210: 5c6f fabc bd12 89bd 37b4 e639 1adb 863c
00000220: d0bd 92bd 45f0 bcbc 9860 363c 180d 88bd
00000230: 8551 943c b8a9 2d3d 6704 0cbd c64e b53c
00000240: 0480 69bc 2a56 c5bc 8cd1 b1bc 99b8 e9bc
00000250: d25c 33bc 4a1b 3f3c 39c0 86bd aade 95bc
00000260: 9a87 283d ea1a 5ebd 68f2 77bd ee42 26bb
00000270: 3af6 c53b d167 f43b 3858 66bd 4e59 2b3d
00000280: 3295 73bd e999 0c3d 34d1 4fbd c80b 693c
00000290: a559 be3c 06d4 3dbc df17 fc3c 8787 40bd
000002a0: d2fa 823c 8dd5 d83c b404 0fbc 9abc 68bd
000002b0: 405c e33c 5824 073d 85ee 8c3a 09d8 60bd
000002c0: 7c8c f0bc b0ec 3ebd 1084 5dbd 10a5 82bc
000002d0: 435c 93bc b0bd be3c 938a 433d 3fb2 9cbc
000002e0: fef4 b6bc 2f35 8aba e863 85bd c0f6 f2bc
000002f0: 2ca7 463d e83b 1fbd d8ff 97bd e7f9 a4bd
00000300: 8e53 c2bc 53d5 8ebd a057 e0bc 6f82 debd
00000310: 1be2 9a3c b1d7 82bd 21ee 11bd 1a02 f737
00000320: 3e2e 723d ec9a d3bc b2a1 9fbc 60e4 3fbc
00000330: 423f 4a3d 4330 763c 4a55 7d3b fdaa b73c
00000340: f710 24bd e158 5cbd 7322 09bd 80f1 863c
00000350: 8072 8cba 30fc ac3c f640 63bd 2244 733a
00000360: 9759 3cbd cbc2 88bd 6982 133d cf13 5e3d
00000370: b4e3 d73b 3dfb 8e3b ade0 5f3d 1b45 12bd
00000380: 5141 32bd ea77 203d 6dbf 8abd e0c6 6bbd
00000390: b3fc a73c f5cb 0c3d 99df 08bd a6ed 1bbd
000003a0: 48e2 d83c ea05 583c 7e0f 66bd 5701 93bd
000003b0: fe64 033d 04f3 7b3c e337 77bd 10b8 353c
000003c0: d122 533d 6643 e03c 373e c43b b87d edbc
000003d0: 8e7b febc 3a0e 923b e650 8ebc 071d 4cbd
000003e0: 0ea1 72bd 8e33 b83b e00b 92bc a424 54bd
000003f0: 883b 4dbd 60f5 93bd 2305 133b 41f1 86bd
0.034443803 -0.03757244 0.021465942 0.006093883 0.009508029 -0.020091131 0.05544191 -0.0035433304
-0.045746043 0.0049174647 0.024069265 0.015613518 -0.0078011407 0.033448957 -0.03821385 -0.060650688
0.03935186 -0.023384422 0.05010373 -0.04909494 -0.016264912 0.04155994 0.03947813 -0.06222368
-0.053818367 -0.06710633 0.04250145 0.04201968 -0.04349846 -0.015778184 0.016724735 -0.06550545
-0.052558284 0.030360546 -0.013212101 -0.05012022 0.042023815 0.011617908 0.05977988 -0.05847521
0.043892264 -0.055405833 -0.023941435 -0.04473358 0.015793184 0.015012327 -0.010301099 -0.007876143
-0.053013187 -0.014193744 -0.039578438 -0.015977796 0.0136083085 0.035525523 0.035147443 -0.0066064163
-0.0016319216 0.037314452 -0.03574066 0.034041453 0.006411454 -0.023947729 -0.01320488 -0.08313526
-0.03749998 0.018674478 -0.045419272 -0.013475399 -0.026429033 -0.028577304 0.03032047 -0.062927246
0.049748775 -0.017407555 0.0061622 -0.021076752 0.030829115 -0.0880405 -0.025746388 -0.030071698
0.0110832825 -0.01754506 0.041674763 -0.016807085 0.005019203 -0.039247863 -0.05052814 0.027024768
-0.023678087 -0.051338855 -0.00011100166 0.011111603 0.03315671 -0.07148104 -0.039840512 -0.053308018
-0.0038034318 0.0039283135 0.0040970626 0.03614427 -0.046127796 -0.0047942577 -0.05635906 -0.017862506
-0.0022209934 -0.050550543 0.009633166 -0.06262847 0.041917715 0.028606778 -0.011939854 -0.0035441434
-0.022969153 -0.033001676 0.0090272715 -0.004767547 0.0036186487 0.053353243 -0.039006274 0.045474105
-0.03936324 0.0074253012 0.0011801549 -0.0053206636 -0.09325697 -0.012066618 0.03415316 -0.0054114694
-0.03805314 0.0011443208 -0.11115663 -0.038657613 -0.030570678 -0.06693027 0.0004400329 0.016461898
-0.0716511 -0.023063788 0.011131428 -0.066431224 0.018105278 0.042398185 -0.034183886 0.022132289
-0.014251713 -0.024088938 -0.021706365 -0.028530406 -0.010947423 0.011664221 -0.06579632 -0.018294651
0.041144945 -0.054224886 -0.06053391 -0.0025369483 0.0060413154 0.007458665 -0.056236476 0.041833214
-0.059468456 0.034326468 -0.05073662 0.014224 0.023236105 -0.011586195 0.030773101 -0.04700425
0.015988741 0.026469016 -0.008729149 -0.05682049 0.02775395 0.032993644 0.0010752237 -0.054893527
-0.029363863 -0.04661244 -0.054081023 -0.015947849 -0.01798833 0.02328381 0.047739577 -0.019127963
-0.022333618 -0.0010544414 -0.06513196 -0.029658675 0.04849927 -0.03887549 -0.07421845 -0.080554776
-0.023721483 -0.06974282 -0.027385533 -0.10864722 0.018906644 -0.06388796 -0.035627488 2.9445673e-05
0.05912613 -0.025830708 -0.019486282 -0.011712164 0.049376734 0.015026155 0.0038655573 0.0224204
-0.04005524 -0.0537957 -0.03348012 0.016472578 -0.0010715276 0.021116346 -0.055481873 0.0009279867
-0.045983877 -0.06677779 0.03601304 0.05421811 0.0065884236 0.004363446 0.054657627 -0.035710435
-0.04351932 0.03917686 -0.06774793 -0.05756271 0.020506239 0.034374196 -0.033416364 -0.038068436
0.026475087 0.013185004 -0.05616712 -0.0717799 0.032078736 0.015377764 -0.060356032 0.011091247
0.051546875 0.027375888 0.005988862 -0.028990611 -0.031064775 0.0044572623 -0.01737256 -0.04983237
-0.059235625 0.00562138 -0.017827928 -0.051792756 -0.0501056 -0.07224536 0.0022433482 -0.06588984

head1.0.bias f4 [128]
00000000: 84b2 2ebd 02b8 86bd 1b4b 13bd 2ae1 cd3d
00000010: c33e c8bd 2611 15bd 3d5e ce3c 18f6 8ebd
00000020: 071e 9cbe e142 18bd 0606 bdbd 08ca 99bd
00000030: c6b1 10bd 0ac0 a3be 094e b7bd 0da2 87ba
00000040: ce62 c0bc b630 04bd 2d43 a1bc 1bd9 123d
00000050: 51e8 dcbc abaa e1bc cb7a 70bb b8cd 963c
00000060: 4925 c6bd 2cba 69bc c59a 813c dcd8 afbd
00000070: 7cdd 66bd 58a5 233b 817a 403d d34d c3bd
00000080: 9b5c 81bd cf4e 1c3d f0ca d5bc 2044 82bd
00000090: 84de 5a3c c90b 82bd f429 733e fcb1 9ebe
000000a0: 6c79 6abd 1f10 bbbd 56d4 813b 40a9 41bf
000000b0: 08c0 09bd 8f68 6f3c e6a3 5ebd 3aa2 5cbe
000000c0: a81f 9abd 7885 a1be 53aa 14bf 1708 683c
000000d0: 9d73 11bd 0561 73bd 2f13 b53c ad4b 0abf
000000e0: 46bb 0dbd be1e acbe 0905 09bc 6ddf c7bd
000000f0: 3a92 a1bd ab60 383c 402b 4d3c f2e1 34be
00000100: 974d 48bd a8ca b53c 9c24 c2bb fd99 dabc
00000110: db01 e4bd 4832 12be bf93 a5bd b8f0 233c
00000120: 274e 96bd 9bf4 42bd 3d66 a5bd 3786 92be
00000130: 8f75 51be f323 cdbe 2319 08bf bafb 18bd
00000140: 781a d0bd b125 fc3b a483 31bf ae01 d7bd
00000150: 6a7c d9bc 7142 07be e044 3cbc c72b 353b
00000160: 9674 f83c 6e1a cc3c cbea e7bc 0d2f 41bd
00000170: fcae ffbc 853a a2bd 4635 293c d883 00bd
00000180: 2aba cbbc 8d12 73be 2075 a6bd e75c 62bc
00000190: ea3a 88be 283c d83d 061f 24bf b62f 95bd
000001a0: 40e1 583b b102 47bd bcf4 2ebd 5383 5cbc
000001b0: 7ebb 47bd 83b7 a53c 04c7 2abd 2377 61bd
000001c0: 49c8 35bc b8b9 a83c 0ad2 dabd efed 79bb
000001d0: 753b abbd 7965 85bd 2560 f7bc d070 973a
000001e0: cdb2 c5bc 8f75 c6bd 7833 27be 97c7 14be
000001f0: 6a7d dbbd 5bd7 26be 7dd9 a2bd 3078 18bd
-0.042650715 -0.065780655 -0.035960298 0.10052712 -0.09777596 -0.036393307 0.02519142 -0.069805324
-0.3049166 -0.037173156 -0.092296645 -0.075092375 -0.035325788 -0.31982452 -0.08950431 -0.0010347978
-0.023484614 -0.032273017 -0.019685352 0.03585158 -0.026966246 -0.027547201 -0.0036694284 0.018408641
-0.0967508 -0.014265578 0.01582087 -0.085862845 -0.056363568 0.0024970379 0.04699183 -0.09536328
-0.06316491 0.038161095 -0.026097745 -0.0636065 0.013358716 -0.06349904 0.23746473 -0.30995166
-0.057244703 -0.09133934 0.00396208 -0.7564888 -0.0336304 0.014612331 -0.054355524 -0.2154626
-0.07525569 -0.3154714 -0.58072394 0.014162085 -0.035510648 -0.059418697 0.022103874 -0.5402172
-0.034602426 -0.33617204 -0.008363017 -0.09759412 -0.07889219 0.011253516 0.012522519 -0.17664316
-0.04890212 0.02219136 -0.0059247743 -0.026684755 -0.111331664 -0.14276993 -0.08084821 0.010006122
-0.07339125 -0.047596555 -0.08076141 -0.28618023 -0.20455001 -0.4006649 -0.53163356 -0.03734944
-0.101612985 0.007694923 -0.6934149 -0.10498367 -0.026548583 -0.13208939 -0.01149103 0.0027644502
0.03032903 0.024914946 -0.0283102 -0.04716401 -0.031211369 -0.07921318 0.010327643 -0.031375736
-0.024869043 -0.23737545 -0.081278086 -0.013816095 -0.26607448 0.10558349 -0.6410984 -0.07284491
0.0033093244 -0.04858655 -0.042713866 -0.0134590445 -0.04876279 0.020229107 -0.041693702 -0.05504526
-0.011095115 0.02059637 -0.10684593 -0.0038136204 -0.0836095 -0.06513495 -0.030197212 0.0011554006
-0.02413311 -0.09690391 -0.16328228 -0.14529262 -0.1071728 -0.16293089 -0.07951639 -0.037223995
