Hoang/Reference/Deep Learning-based Satellite Data Retrieval/Sample Code/Polarimeter_Prediction_FNN/Models/RegressionModels/Regression_Model.pth (torch, 831542 bytes, 10 tensors)

layers.0.weight f4 [256, 14]
-0.39160958 -0.08961081 -0.10011037 0.047723882 0.09955819 0.14163913 -0.017223625 -0.05937194
0.014165745 0.16722205 -0.12903325 0.029906401 -0.03875229 -0.0029402939 -0.06907961 -0.057812214
-0.14163905 -0.08788268 -0.22472987 -0.042965055 -0.19716829 -0.15491149 0.067860425 -0.227848
-0.07268523 -0.1608252 0.13988417 0.08410695 0.043338627 -0.18249519 -0.21104541 0.20595744
-0.19068526 -0.19783902 0.09126699 -0.25034645 -0.13415952 -0.21069115 -0.17692295 -0.1738582
-0.26459005 -0.07427536 -0.19787803 0.6149604 -0.27595937 -0.049320765 -0.0057806484 -0.009237815
0.0058198683 0.0049353573 0.0041027274 -0.0036803144 -0.0011930063 -0.008202369 0.009535381 -0.0017640896
-0.08727239 -0.12712584 -0.21380682 0.4727302 -0.016383113 0.19249405 -0.11631961 0.06954504
-0.032291535 -0.08264516 -0.00847062 0.23441505 0.010969114 0.011946553 -0.13642879 -0.2996484
-0.14050898 -0.57475984 0.032836877 -0.009390755 0.015588722 -0.20909438 -0.0018836204 0.047858626
-0.0065867556 0.0098467115 0.030760074 -0.010061229 -1.1575699 -1.057282 -0.37957394 -0.70152205
0.08584729 -0.500195 0.107086204 0.3085726 -0.10572016 -0.2742011 -0.4678853 -0.049448725
-0.97661304 0.11766442 -0.15810888 0.23204799 0.08712516 0.31713715 -0.06735293 0.031345565
-0.14095326 -0.021537893 -0.09847808 -0.10641555 -0.07483489 0.0011211281 0.06855963 0.043908898
-0.42858043 -1.6086936 -0.3480621 -0.34741467 -0.17394197 -0.3250671 -0.047346264 -0.3490655
-0.058134098 -0.084814735 0.02627969 -0.3238748 -0.36305702 -0.06468917 -0.011476611 0.03431557
0.0060114544 0.014914662 -0.32241902 0.27425763 0.022403039 0.03307429 0.009329926 -0.025385777
-0.0047223787 -0.006131534 -0.002439215 0.0017970357 -0.3682971 -0.05665208 -0.04435425 0.028560221
0.01845009 -0.011233385 -0.09415636 -0.054460675 0.040505316 0.042126674 0.1382005 -0.04581898
-0.03163305 -0.025688214 0.033768997 -0.010571811 0.033457268 -0.09381074 0.005816987 -0.0037165359
0.0015252263 0.0015420256 0.0002679489 0.0068732495 -0.0034877218 0.0027054523 -0.0021453027 -8.745374
0.015789134 0.05051624 -0.27229834 0.03174346 -0.031147484 -0.052529767 -0.10818268 -0.07098457
-0.035264146 -0.041049328 -0.034072746 -0.10153842 0.063816905 0.027879788 -0.42770296 0.41925317
0.010987059 -0.005942738 0.00013564753 0.013120043 0.008569422 -0.010606444 5.489717e-05 0.018710699
-0.01620863 -0.008413888 0.13368654 0.0030555327 -0.14168969 -0.12840149 -0.22864528 -0.09162535
-0.018894477 -0.07318485 0.022524884 0.056954764 0.039972175 -0.0075025572 0.029498087 0.020070601
-0.043915987 -0.02197421 -0.18545789 -0.10486743 -0.13404101 0.06817564 -0.082922906 -0.10116914
0.1164501 -0.15699801 0.032407194 -0.21124306 -0.09937173 0.031763464 0.16364664 -0.17407255
-0.05981475 0.027471142 -0.055594962 0.4612024 0.12737943 0.26083726 -0.13409291 -0.102738395
-0.0008483718 0.22364774 0.00042161363 0.032888755 -0.0071222074 -0.0013978801 -0.07493463 -0.35071713
-0.14157675 -0.5225437 0.02115907 -0.008926435 0.009482686 -0.16404451 0.00068127585 0.025465026
-0.000114085764 0.0050936183 0.0052259676 0.00031065327 -0.1579851 -0.15607071 -0.21083087 -0.116361275
00000000: 0d81 c8be df85 b7bd aa06 cdbd 1e7a 433d
00000010: 2ae5 cb3d d909 113e 8f18 8dbc fe2f 73bd
00000020: 7117 683c 423c 2b3e 4b21 04be 45fe f43c
00000030: b9ba 1ebd f2b1 40bb 9c79 8dbd 80cc 6cbd
00000040: d409 11be d6fb b3bd 961f 66be 20fc 2fbd
00000050: 7ce6 49be 1ea1 1ebe 68fa 8a3d fc50 69be
00000060: fedb 94bd 5caf 24be cc3d 0f3e 4440 ac3d
00000070: d883 313d 05e0 3abe 4a1c 58be 82e6 523e
00000080: ff42 43be 5096 4abe 30ea ba3d 692d 80be
00000090: 1d61 09be 6cbf 57be 4a2b 35be e207 32be
000000a0: 5978 87be ae1d 98bd 8aa0 4abe 0b6e 1d3f
000000b0: 8c4a 8dbe 9204 4abd 986b bdbb 345a 17bc
000000c0: 98b4 be3b c7b8 a13b 2c70 863b 6e31 71bb
000000d0: a65e 9cba 3b63 06bc 493a 1c3c 0639 e7ba
000000e0: debb b2bd 472d 02be 2df0 5abe b109 f23e
000000f0: e135 86bc 291d 453e fa38 eebd a16d 8e3d
00000100: 2144 04bd de41 a9bd 5bc8 0abc 800a 703e
00000110: ccb7 333c 7abb 433c fdb3 0bbe 846b 99be
00000120: 96e1 0fbe 7623 13bf f67f 063d aedb 19bc
00000130: d767 7f3c d61c 56be d0e3 f6ba 6807 443d
00000140: b6d5 d7bb 1a54 213c 8dfc fb3c dad7 24bc
00000150: 402b 94bf 0455 87bf 8457 c2be f396 33bf
00000160: b4d0 af3d c80c 00bf 0350 db3d 3afd 9d3e
00000170: d083 d8bd 1664 8cbe a98e efbe bf8a 4abd
00000180: 5003 7abf 0bfa f03d 4be7 21be fd9d 6d3e
00000190: ad6e b23d cd5f a23e 55f0 89bd 3564 003d
000001a0: 0d56 10be 3c70 b0bc e0ae c9bd 65f0 d9bd
000001b0: 0943 99bd d1f2 923a fe68 8c3d d1d9 333d
000001c0: e56e dbbe ace9 cdbf 3235 b2be 56e0 b1be
000001d0: d81d 32be 326f a6be 28ee 41bd b7b8 b2be
000001e0: 051e 6ebd 59b3 adbd 8148 d73c ebd2 a5be
000001f0: 9ce2 b9be c17b 84bd 6508 3cbc 7c8e 0c3d
00000200: bcfb c43b a05c 743c 1b14 a5be 7f6b 8c3e
00000210: 9486 b73c e878 073d 8cdc 183c d5f5 cfbc
00000220: 2fbe 9abb 09eb c8bb 3ddb 1fbb 838a eb3a
00000230: 7091 bcbe 030c 68bd cdac 35bd 20f7 e93c
00000240: a524 973c 3b0c 38bc 0dd5 c0bd 2812 5fbd
00000250: e7e8 253d 058d 2c3d 6f84 0d3e afac 3bbd
00000260: a891 01bd 1770 d2bc 5c51 0a3d 6435 2dbc
00000270: 7d0a 093d d81f c0bd 6c9c be3b 2091 73bb
00000280: 1aea c73a cb1d ca3a 7e7b 8c39 ff38 e13b
00000290: 4392 64bb f54d 313b 3598 0cbb 0ded 0bc1
000002a0: 3758 813c 1eea 4e3d b06a 8bbe 6e05 023d
000002b0: 0229 ffbc 7429 57bd e28e ddbd 5c60 91bd
000002c0: 2371 10bd 5723 28bd dd8f 0bbd 60f3 cfbd
000002d0: 70b2 823d 2764 e43c e2fb dabe 5aa8 d63e
000002e0: 1103 343c 4dbb c2bb 9b3c 0e39 73f5 563c
000002f0: c366 0c3c a7c6 2dbc 6341 6638 2e47 993c
00000300: f6c7 84bc 67da 09bc 20e5 083e 553f 483b
00000310: 1a17 11be ae7b 03be fd21 6abe 12a6 bbbd
00000320: 97c8 9abc f0e1 95bd 1b86 b83c 6649 693d
00000330: ddb9 233d 03d8 f5bb f9a5 f13c 1a6b a43c
00000340: 40e1 33bd 4203 b4bc ace8 3dbe bcc4 d6bd
00000350: 0c42 09be ac9f 8b3d 7cd3 a9bd c431 cfbd
00000360: 647d ee3d 16c4 20be 68bd 043d 1a50 58be
00000370: 6883 cbbd 681a 023d fc92 273e 1340 32be
00000380: 5000 75bd 290b e13c 8bb7 63bd b922 ec3e
00000390: c16f 023e 768c 853e a74f 09be 8268 d2bd
000003a0: 4565 5eba ea03 653e 060c dd39 5cb6 063d
000003b0: 6861 e9bb 1339 b7ba 5477 99bd 3291 b3be
000003c0: 7ff9 10be 6dc5 05bf c955 ad3c 2f40 12bc
000003d0: 455d 1b3c 49fb 27be a697 323a 089c d03c
000003e0: 5441 efb8 5ee8 a63b 983e ab3b 2ddf a239
000003f0: d9c6 21be 00d1 1fbe 0ce4 57be d24e eebd

layers.0.bias f4 [256]
0.5908797 -0.065519184 -0.19051507 -0.17397591 -0.20858999 0.24292545 0.36855194 0.41166806
0.2867509 -0.1095544 0.55795586 0.20932189 -0.14578371 -0.035075054 0.49932924 -0.21694301
-0.26641718 0.36001197 0.5087862 -0.25801355 -0.36414188 0.2131087 0.16475518 0.15961051
0.056635927 -0.04987913 -0.33408526 0.0065576155 0.25461978 -0.21139732 0.002953602 0.34039786
-0.3773623 0.37842333 0.12163342 0.01226047 -0.18141937 -0.3359599 0.46845737 0.11468174
-0.04350779 -0.0660294 0.5339604 -0.35935354 0.14852051 -0.27426764 -0.4754947 0.14442052
-0.22447078 0.06676241 0.025571192 0.0069645033 0.13691221 -0.11784835 0.12881221 -0.5218503
0.20046234 -0.3379273 -0.41334397 0.399442 -0.38483876 -0.20794134 -0.53415483 -0.24947737
0.43786657 -0.39062294 0.26354688 0.459582 -0.050838362 -0.20228954 -0.307467 0.38140827
-0.43851653 -0.21797761 -0.39825255 -0.44536158 -0.26106167 0.5839336 0.5096632 0.23388284
-0.07733589 0.32608953 0.2970615 -0.42719862 -0.21523423 -0.14806484 0.28792194 0.28639418
-0.14522065 0.07647655 -0.25581902 0.026653891 0.45236927 0.33830506 0.43663213 -0.57053244
-0.17084399 -0.24805743 -0.05199032 -0.29319757 -0.1020311 0.34796408 0.35712683 0.5016871
0.093502425 -0.39357144 -0.3466983 -0.15654424 0.11702937 0.19635375 0.16901958 0.4771193
0.12502164 0.36240056 0.1234065 -0.16457751 -0.20805927 0.091574654 0.08178715 0.014637197
0.1983052 -0.44798192 0.042516403 -0.035226747 0.5375223 0.32485348 -0.3610921 0.24053971
-0.29623216 0.22613332 -0.5102084 0.27653846 -0.23839086 0.42552304 -0.22162667 0.53553665
-0.38247064 -0.17308402 0.0006284884 0.09187192 0.3860349 -0.17107905 0.22239755 -0.0006925829
-0.20973489 -0.0085836705 0.14702258 0.4276775 -0.15909441 -0.43585348 -0.05578478 0.6375398
0.11879365 0.08192529 -0.036426358 0.12305091 -0.49110454 -0.27851054 0.15987428 0.4707228
0.29581618 0.3122484 0.12177261 -0.106262624 -0.22029535 0.19759291 -0.5422696 0.5153289
-0.24968429 0.21790521 -0.3235178 0.0983822 -0.4795684 -0.42515323 0.14104915 -0.0890732
0.14502136 -0.57187057 -0.08744045 0.35922602 0.12536858 0.07971865 -0.09412973 -0.3537138
-0.3512985 0.5113434 -0.20778422 0.047991596 0.31335106 0.5352796 -0.1683013 -0.2807811
-0.013841786 0.026676785 -0.47471678 0.4301829 -0.30505416 -0.028058054 -0.13736604 0.099390924
-0.33035654 0.34251723 0.3726474 -0.2575631 0.1075147 0.2152815 -0.384118 0.21899556
0.33588067 0.23516908 0.02719141 -0.13317141 0.4381518 0.44368598 -0.2030998 -0.082181975
-0.5745719 0.095731676 -0.028970199 0.19044365 0.4010664 -0.48134956 0.06745063 -0.24695882
0.19082437 0.041298073 0.2097908 0.17506114 0.33949482 0.10157058 -0.41106963 -0.35137665
-0.36685243 0.52979857 -0.24810642 -0.44623122 0.056207817 0.3996526 0.21509102 -0.18796712
0.47289002 -0.05166339 -0.23186406 0.24499023 0.20262803 -0.161005 0.3421877 -0.12101117
-0.18219249 -0.007086707 0.22510149 0.2201577 0.26932842 0.40480667 0.21358375 -0.18688431
00000000: e443 173f ec2e 86bd 6216 43be be26 32be
00000010: 9d98 55be 73c1 783e d7b2 bc3e 28c6 d23e
00000020: 04d1 923e 0f5e e0bd 32d6 0e3f 7a58 563e
00000030: 5348 15be dcaa 0fbd 15a8 ff3e 4f26 5ebe
00000040: d567 88be 7d53 b83e d03f 023f 5a1a 84be
00000050: ce70 babe 2b39 5a3e 95b5 283e f070 233e
00000060: 13fb 673d 0f4e 4cbd 390d abbe 44e1 d63b
00000070: 865d 823e 8a78 58be 3891 413b a148 ae3e
00000080: a235 c1be b4c0 c13e f11a f93d 23e0 483c
00000090: 00c6 39be f002 acbe a5d9 ef3e 43de ea3d
000000a0: 3935 32bd 6c3a 87bd a1b1 083f 30fd b7be
000000b0: c315 183e cf6c 8cbe 0b74 f3be f9e2 133e
000000c0: abdb 65be bbba 883d ad7a d13c 7d36 e43b
000000d0: b732 0c3e 7a5a f1bd 59e7 033e fb97 05bf
000000e0: 0046 4d3e cf04 adbe d2a1 d3be a983 cc3e
000000f0: 9609 c5be 93ee 54be 5fbe 08bf ff76 7fbe
00000100: 0c30 e03e bbff c7be 9eef 863e 554e eb3e
00000110: e33b 50bd fd24 4fbe 516c 9dbe f247 c33e
00000120: 3d85 e0be 8635 5fbe c2e7 cbbe 6f06 e4be
00000130: e0a9 85be ac7c 153f 4a79 023f fc7e 6f3e
00000140: 4762 9ebd 35f5 a63e 7218 983e c7b9 dabe
00000150: 5d66 5cbe 4f9e 17be 816a 933e 42a2 923e
00000160: b9b4 14be bd9f 9c3d b6fa 82be 4359 da3c
00000170: f29c e73e 5236 ad3e 3f8e df3e 6a0e 12bf
00000180: baf1 2ebe c402 7ebe cdf3 54bd fe1d 96be
00000190: aef5 d0bd 5928 b23e 54d9 b63e 916e 003f
000001a0: 337e bf3d 3282 c9be 7182 b1be 224d 20be
000001b0: 18ad ef3d f510 493e 7813 2d3e fb48 f43e
000001c0: ac05 003e 918c b93e 8cbc fc3d 0287 28be
000001d0: 7d0d 55be 7e8b bb3d 0580 a73d dbd0 6f3c
000001e0: 8510 4b3e e35d e5be ae25 2e3d ec49 10bd
000001f0: 109b 093f 3253 a63e 10e1 b8be 0b50 763e
00000200: beab 97be 7e8f 673e 059d 02bf 7396 8d3e
00000210: bc1c 74be 28de d93e 1af2 62be ee18 093f
00000220: 31d3 c3be f03c 31be 24c1 243a 5827 bc3d
00000230: 5ea6 c53e 592f 2fbe 2fbc 633e 748e 35ba
00000240: bec4 56be 86a2 0cbc 168d 163e 8cf8 da3e
00000250: a5e9 22be 3028 dfbe 957e 64bd cf35 233f
00000260: 164a f33d 72c8 a73d ce33 15bd 1e02 fc3d
00000270: 0e72 fbbe ef98 8ebe 15b6 233e 9402 f13e
00000280: 3875 973e 06df 9f3e eb63 f93d 38a0 d9bd
00000290: 1b95 61be cc55 4a3e 2ed2 0abf 98ec 033f
000002a0: 3dad 7fbe 8b22 5f3e 20a4 a5be 9b7c c93d
000002b0: fd89 f5be afad d9be 306f 103e 036c b6bd
000002c0: 7b80 143e 1c66 12bf fb13 b3bd 79ec b73e
000002d0: 9f60 003e 8843 a33d 16c7 c0bd fa19 b5be
000002e0: 66dd b3be 67e7 023f 63c5 54be d692 443d
000002f0: 8d6f a03e 1508 093f 2d57 2cbe 8ac2 8fbe
00000300: a9c8 62bc 4689 da3c 140e f3be ef40 dc3e
00000310: 0f30 9cbe 01da e5bc afa9 0cbe 788d cb3d
00000320: 7e24 a9be 6b5e af3e a4cb be3e 50df 83be
00000330: ab30 dc3d c172 5c3e 1dab c4be 5f40 603e
00000340: 8df8 ab3e 2ad0 703e 85c0 de3c 165e 08be
00000350: 6f55 e03e cf2a e33e 65f9 4fbe 064f a8bd
00000360: 2517 13bf f80e c43d e952 edbc a903 433e
00000370: 9358 cd3e 7373 f6be 8e23 8a3d c6e2 7cbe
00000380: 7767 433e 2b28 293d 66d3 563e 3a43 333e
00000390: 44d2 ad3e 3c04 d03d b877 d2be a4e7 b3be
000003a0: 15d4 bbbe e1a0 073f 9c0f 7ebe 6b78 e4be
000003b0: 2b3a 663d 449f cc3e d240 5c3e 747a 40be
000003c0: a41e f23e fe9c 53bd c66d 6dbe b8de 7a3e
000003d0: b97d 4f3e 7fde 24be 3a33 af3e b4d4 f7bd
000003e0: ab90 3abe 9b37 e8bb 0181 663e 0571 613e
000003f0: 6ae5 893e d242 cf3e b3b5 5a3e 9a5e 3fbe

layers.2.weight f4 [256, 256]
0.074775346 -0.027109675 -0.04603149 -0.098893866 0.0832656 0.34722748 -0.08849714 -0.07452415
0.010022322 0.020899048 0.15955772 -0.17723437 0.028830988 0.04974962 0.13918583 -0.027687714
-0.13903837 0.4021159 0.068993 -0.10850986 0.051650476 -0.17123574 0.16636442 0.040659346
-0.022597943 -0.010264756 -0.03472979 -0.107706934 -0.75896096 -0.1298746 0.064542666 0.25481611
-0.0015867258 0.1576457 -0.0017474585 0.11531343 0.027984964 -0.043495808 0.04917745 -0.055857774
-0.02402247 0.085114114 0.04250924 0.024072826 -0.27459165 -0.061470985 -0.5122074 -0.03552977
0.05730988 -0.08489127 0.040530477 0.011915952 -0.24189347 -0.052032974 -0.27412245 0.21066126
0.14925681 0.15267642 0.023299707 0.18265548 -0.063406 -0.021991896 0.021948999 0.046463452
0.03772471 -0.06388014 0.2233916 -0.004626714 -0.036469568 -0.033221517 -0.023262072 -0.037931826
-0.079542644 -0.0032980354 -0.16279498 -0.6019439 0.2963072 0.18315421 -0.0469211 0.11489534
-0.21159136 -0.091908 0.070917346 0.17903501 0.24586962 -0.07567734 0.13662167 -0.00661045
0.12768658 -0.034474865 -0.011049369 0.04942862 0.16119325 0.07314149 0.14044157 -0.59344935
0.003696841 -0.013872117 -0.0415765 -0.048956413 0.12983792 0.06515229 0.111017376 0.13645816
-0.36237147 -0.14590003 0.17627329 -0.0069891345 0.041108023 0.074615635 -0.16870172 0.025815576
0.33736435 -0.045026954 0.10598176 0.0070788516 -0.039597474 -0.06961214 0.42183736 0.25522712
-0.23252985 0.100732766 -0.0270115 0.00827192 0.16114745 0.2252972 0.15177687 0.06991006
-0.08530831 -0.025505444 0.1833706 0.031481005 -0.043250944 -0.40109965 0.038942248 0.14925326
0.1406372 -0.0038156097 -0.024316315 -0.123397015 -0.10640564 -0.081085905 0.087583974 0.2825227
-0.15372989 0.2115138 0.122857586 0.029837789 -0.032295868 -0.10566623 0.13185735 0.036308847
-0.106261045 -0.25796112 0.12380609 0.15360144 -0.08210591 -0.14261457 0.1599212 0.061549272
0.015808012 -0.3470204 0.050802063 0.020725872 0.0016919979 0.25138032 -1.0107385 0.020839982
-0.047808014 0.04061083 -0.13092385 -0.19654836 0.6699957 0.07007049 -0.16936925 -0.16490355
0.14568661 0.14604919 -0.07046202 0.25237003 -0.1498258 -0.121478446 0.14703041 -0.27721265
-0.08962739 0.0088284835 0.13618262 -0.012040878 0.23967835 -0.15285645 0.3673109 0.047443535
0.2170839 0.079415955 -0.28921062 -0.024350964 -0.21387853 0.08705922 0.053580448 0.0014775491
-0.089816615 0.02383086 0.13357542 -0.19372083 -0.1163224 0.026332213 -0.05863664 -0.2492365
0.29453665 0.18671405 -0.09077081 -0.070851885 -0.014157593 -0.3474759 -0.041746154 0.12842932
-0.00045471668 -0.17669761 -0.11809947 0.24976745 -0.3065801 -0.41702837 -0.37050214 -0.011586651
0.12621653 0.029903155 0.019293135 0.033659857 -0.25524357 0.14385091 0.31378344 -0.16832171
-0.09351107 0.1871473 -0.05468382 0.04049379 0.023432866 0.15420641 0.05190562 0.03896311
0.11073069 0.055716123 -0.0010382561 -0.19951107 -0.2492201 0.038192354 0.1557507 -0.11319038
-0.030586964 0.09772285 -0.0031917198 -0.4796469 -0.022235936 0.16578807 0.28831187 -0.092103325
00000000: d123 993d 1c15 debc 848b 3cbd de88 cabd
00000010: 2887 aa3d cdc7 b13e fd3d b5bd 1ea0 98bd
00000020: aa34 243c 7b34 ab3c 1963 233e ed7c 35be
00000030: f72e ec3c 42c6 4b3d bb86 0e3e 58d1 e2bc
00000040: 1360 0ebe 23e2 cd3e 344c 8d3d 6b3a debd
00000050: 738f 533d 6c58 2fbe 6f5b 2a3e 6a8a 263d
00000060: 521f b9bc 822d 28bc d340 0ebd 7495 dcbd
00000070: 444b 42bf d9fd 04be f22e 843d 4277 823e
00000080: aff9 cfba e06d 213e fa0a e5ba 7329 ec3d
00000090: b940 e53c a928 32bd 4b6e 493d 1fcb 64bd
000000a0: c5ca c4bc 4f50 ae3d 2b1e 2e3d 6034 c53c
000000b0: 4797 8cbe 00c9 7bbd 0620 03bf aa87 11bd
000000c0: c4bd 6a3d 79db adbd 4903 263d 203b 433c
000000d0: ecb2 77be 8720 55bd c759 8cbe 96b7 573e
000000e0: c7d6 183e 3557 1c3e 07df be3c 0a0a 3b3e
000000f0: 01db 81bd 5928 b4bc 63ce b33c 7650 3e3d
00000100: 3a85 1a3d 97d3 82bd c5c0 643e b19b 97bb
00000110: 1d61 15bd 4913 08bd 1a90 bebc 675e 1bbd
00000120: 41e7 a2bd da23 58bb bab3 26be ff18 1abf
00000130: 94b5 973e c78c 3b3e 5730 40bd 3f4e eb3d
00000140: 68ab 58be 433a bcbd 1d3d 913d f454 373e
00000150: 3fc5 7b3e b9fc 9abd 8de6 0b3e 799c d8bb
00000160: 45c0 023e 8435 0dbd 6a08 35bc aa75 4a3d
00000170: d80f 253e 35cb 953d eacf 0f3e 4cec 17bf
00000180: b346 723b e047 63bc 1f4c 2abd 8586 48bd
00000190: 3bf4 043e 906e 853d 145d e33d b0bb 0b3e
000001a0: c188 b9be d166 15be fc80 343e 1c05 e5bb
000001b0: e360 283d 15d0 983d 25c0 2cbe 307b d33c
000001c0: 05bb ac3e 2f6e 38bd f70c d93d b6f5 e73b
000001d0: f630 22bd cf90 8ebd 11fb d73e 21ad 823e
000001e0: 4e1c 6ebe fb4c ce3d 3947 ddbc f286 073c
000001f0: d603 253e 4fb4 663e 656b 1b3e 012d 8f3d
00000200: 20b6 aebd cbf0 d0bc 81c5 3b3e 3af2 003d
00000210: e727 31bd ef5c cdbe e881 1f3d d9d5 183e
00000220: 3303 103e 4f0f 7abb 0233 c7bc 93b7 fcbd
00000230: 33eb d9bd 5e10 a6bd 3a5f b33d d1a6 903e
00000240: 5e6b 1dbe 1397 583e c29c fb3d 616e f43c
00000250: ac48 04bd 8967 d8bd 9d05 073e 96b8 143d
00000260: 649f d9bd 7b13 84be 0c8e fd3d b249 1d3e
00000270: 2527 a8bd 8e09 12be 62c2 233e 171b 7c3d
00000280: ce7f 813c a8ac b1be d315 503d 4ec9 a93c
00000290: 07c6 dd3a ecb4 803e e15f 81bf 9cb8 aa3c
000002a0: 56d2 43bd 8b57 263d e710 06be f943 49be
000002b0: d784 2b3f 1e81 8f3d 226f 2dbe 7adc 28be
000002c0: df2e 153e eb8d 153e 644e 90bd a536 813e
000002d0: ef6b 19be b1c9 f8bd 248f 163e d1ee 8dbe
000002e0: 918e b7bd 58a5 103c 7573 0b3e 1a47 45bc
000002f0: 3e6e 753e 6786 1cbe 2d10 bc3e 2754 423d
00000300: 3e4b 5e3e d5a4 a23d 6a13 94be ac7b c7bc
00000310: f902 5bbe 1b4c b23d 2c77 5b3d 52aa c13a
00000320: c6f1 b7bd f038 c33c ffc7 083e c15e 46be
00000330: 703a eebd a7b6 d73c f92c 70bd da37 7fbe
00000340: 82cd 963e f831 3f3e 0ce6 b9bd cb1a 91bd
00000350: 40f5 67bc 5ce8 b1be 04fe 2abd fa82 033e
00000360: 0a67 eeb9 38f0 34be 23de f1bd 0ac3 7f3e
00000370: 11f8 9cbe be84 d5be 75b2 bdbe f0d5 3dbc
00000380: e83e 013e 76f7 f43c a30c 9e3c ebde 093d
00000390: 49af 82be a74d 133e 39a8 a03e 875c 2cbe
000003a0: bb82 bfbd 8ba3 3f3e 24fc 5fbd d1dc 253d
000003b0: 48f6 bf3c 49e8 1d3e fd9a 543d c897 1f3d
000003c0: c6c6 e23d 9736 643d 1816 88ba a14c 4cbe
000003d0: 8e33 7fbe 966f 1c3d 1d7d 1f3e 5cd0 e7bd
000003e0: 8391 fabc eb22 c83d 2c2c 51bb 4794 f5be
000003f0: 2328 b6bc 59c4 293e 9d9d 933e aba0 bcbd

layers.2.bias f4 [256]
0.27530485 -0.106034614 -0.121938206 -0.07180592 -0.031997446 -0.024956726 -0.098354325 -0.10457797
0.03556782 0.033805918 -0.06496413 0.19682212 0.036223967 0.13669021 0.10921381 0.121621065
-0.014045488 -0.10275875 -0.0050374377 0.01893646 -0.0046281237 -0.022432882 0.010337573 -0.23057956
-0.12793803 -0.062288646 0.032898434 -0.0115347095 -0.00042069162 0.10918432 -0.017930903 -0.066541374
0.02125209 0.006541649 -0.13447331 -0.010875151 -0.020302877 -0.039645974 -0.3218654 -0.013768738
-0.059035663 -0.366766 0.038616654 -0.31024683 -0.015584497 -0.0037622878 -0.057192095 0.012093704
-0.12057539 0.044277128 -0.09623976 -0.08105498 0.116256185 -0.03909062 0.015242375 0.10861219
-0.022720335 -0.059044786 0.03598582 0.0209012 0.22780722 -0.0021797281 0.15321237 -0.04286674
0.17231023 -0.036865756 -0.011215975 -0.07341054 -0.022312233 0.086549886 -0.1760652 -0.06389601
0.022374043 0.02032192 -0.06244756 0.017463919 -0.023473538 0.032110132 -0.10978807 -0.018082762
-0.3731692 0.020035256 -0.2627274 -0.04752106 -0.04253906 0.20065926 -0.32315654 -0.025447525
0.22299144 -0.3452549 0.005867124 0.015879987 -0.049835775 0.008908176 -0.14951943 0.004029673
-0.35890922 -0.007102171 0.022355078 -0.034540266 0.030084234 0.015086369 0.33382633 -0.04471352
0.031941317 0.0058065252 0.0018453537 -0.010374752 -0.056539107 -0.13464303 0.19339357 0.04466497
0.011832929 -0.05102336 0.055889957 -0.034773212 0.0227835 -0.07814938 -0.06954124 -0.04629927
0.044570964 -0.017658856 -0.03636396 -0.23827809 -0.061221145 0.165204 -0.053369284 0.031175146
-0.08235996 -0.118901156 -0.0034806454 0.13426363 -0.1057285 -0.060767405 -0.05116893 0.061479785
-0.05889265 -0.3417133 0.14785987 -0.03767218 0.019227434 0.193907 -0.47101405 -0.020637268
0.018241791 -0.06585039 -0.114511535 0.13132294 0.029095257 -0.07968561 0.08259187 0.01114138
0.0074048354 -0.11492803 0.2763467 -0.028940747 -0.056077532 -0.06659676 0.15903841 0.3101966
-0.015273608 -0.03904448 -0.004990978 0.034276217 -0.059603628 -0.277073 0.22964966 0.0076438827
-0.0714379 0.045254346 0.033803657 -0.048962817 0.014342635 0.5631368 -0.16536914 -0.042434003
0.044900235 -0.09639623 0.04548815 -0.10268183 -0.1003203 0.0059751575 -0.047237065 -0.0650153
-0.08551109 -0.009844764 -0.11306165 0.22264837 0.26261663 0.14210978 0.1329784 0.034348845
0.2765301 -0.010295406 -0.16549246 0.29972053 0.19294497 -0.061839715 0.008269764 -0.0553516
0.009649886 0.0937554 -0.050527297 0.23070952 -0.106257245 -0.066814095 0.07661478 -0.07226572
0.09735485 -0.08089827 -0.0002445763 -0.040911544 -0.12555479 -0.37347195 -0.027861765 0.008585185
-0.25574976 -0.038418096 -0.02820201 -0.029311532 -0.06082715 0.03895305 -0.047587473 0.20502935
-0.24396573 -0.15842085 -0.031489916 -0.011349144 -0.06953675 -0.15377302 0.0334811 0.055733964
0.014335702 -0.047392704 -0.077497385 -0.007850716 -0.07061138 0.029986188 -0.010439447 -0.036187056
-0.27551463 -0.14111245 0.031238096 -0.04506801 -0.03032442 0.1352594 -0.42803976 -0.016223216
-0.21488272 -0.044718426 0.014391002 -0.1210135 0.05317158 -0.00033312698 -0.0717234 -0.031983543
00000000: c2f4 8c3e ad28 d9bd bdba f9bd fb0e 93bd
00000010: c10f 03bd 0c72 ccbc fe6d c9bd fa2c d6bd
00000020: 90af 113d 1378 0a3d ea0b 85bd bd8b 493e
00000030: 955f 143d 85f8 0b3e 7dab df3d 7714 f93d
00000040: 0c1f 66bc 2e73 d2bd 1711 a5bb a320 9b3c
00000050: 84a7 97bb 2ac5 b7bc ec5e 293c 0c1d 6cbe
00000060: 3002 03be 6122 7fbd 82c0 063d 14fc 3cbc
00000070: 4690 dcb9 079c df3d d4e3 92bc d846 88bd
00000080: dd18 ae3c 545b d63b 5fb3 09be b02d 32bc
00000090: 3852 a6bc d163 22bd 8bcb a4be 4696 61bc
000000a0: 61cf 71bd c1c8 bbbe 7f2c 1e3d acd8 9ebe
000000b0: 1e56 7fbc b790 76bb 4242 6abd ac24 463c
000000c0: 3bf0 f6bd ef5b 353d 5a19 c5bd 2700 a6bd
000000d0: b917 ee3d 7c1d 20bd 28bb 793c 1170 de3d
000000e0: ff1f babc f2d8 71bd de65 133d fe38 ab3c
000000f0: 4c46 693e c5d9 0ebb b4e3 1c3e 0995 2fbd
00000100: 1872 303e 8c00 17bd 35c3 37bc 4458 96bd
00000110: 25c8 b6bc 1141 b13d 704a 34be e9db 82bd
00000120: c549 b73c 287a a63c 03c9 7fbd 7e10 8f3c
00000130: 944b c0bc ea85 033d 91d8 e0bd 4d22 94bc
00000140: 0910 bfbe fa20 a43c 3584 86be 71a5 42bd
00000150: 703d 2ebd 9f79 4d3e c674 a5be 5477 d0bc
00000160: de57 643e 40c5 b0be 0141 c03b bf16 823c
00000170: 9920 4cbd 99f3 113c 9f1b 19be 590b 843b
00000180: f3c2 b7be 54b9 e8bb ff21 b73c 187a 0dbd
00000190: 3673 f63c d12c 773c 49eb aa3e 8625 37bd
000001a0: e6d4 023d aa44 be3b ccdf f13a ddfa 29bc
000001b0: 8d95 67bd dddf 09be f708 463e 9ef2 363d
000001c0: e7de 413c dffd 50bd deec 643d 5b6e 0ebd
000001d0: 76a4 ba3c c80c a0bd a36b 8ebd 4ea4 3dbd
000001e0: 0b90 363d 4ea9 90bc 60f2 14bd 2cff 73be
000001f0: 06c3 7abd 3d2b 293e c099 5abd 0563 ff3c
00000200: 57ac a8bd 7382 f3bd 8a1b 64bb 687c 093e
00000210: 2f88 d8bd 3ee7 78bd 8396 51bd 3ad2 7b3d
00000220: 6b39 71bd 0cf5 aebe 9468 173e 254e 1abd
00000230: da82 9d3c 8e8f 463e c128 f1be 7d0f a9bc
00000240: cf6f 953c 92dc 86bd 0685 eabd 8579 063e
00000250: 2d59 ee3c 3632 a3bd ed25 a93d 568a 363c
00000260: 43a4 f23b 635f ebbd 517d 8d3e 2515 edbc
00000270: 8eb1 65bd e263 88bd f7da 223e 17d2 9e3e
00000280: 283e 7abc 1bed 1fbd 5c8b a3bb 3865 0c3d
00000290: ef22 74bd 83dc 8dbe 4829 6b3e 8979 fa3b
000002a0: 094e 92bd 9f5c 393d b475 0a3d 3c8d 48bd
000002b0: 5ffd 6a3c bc29 103f 8756 29be 47cf 2dbd
000002c0: 4fe9 373d 636b c5bd c851 3a3d da4a d2bd
000002d0: bb74 cdbd 41cb c33b a77b 41bd be26 85bd
000002e0: 7020 afbd ef4b 21bc de8c e7bd effd 633e
000002f0: b075 863e 3a85 113e 7d2b 083e 60b1 0c3d
00000300: 5a95 8d3e 10ae 28bc db76 29be f874 993e
00000310: 5e93 453e a44b 7dbd e77d 073c 5cb8 62bd
00000320: 8e1a 1e3c d502 c03d b6f5 4ebd 1e3f 6c3e
00000330: 669d d9bd d4d5 88bd 36e8 9c3d 0d00 94bd
00000340: fb61 c73d fead a5bd 7a3a 80b9 dd92 27bd
00000350: 6f91 00be b737 bfbe 5b3e e4bc e0a8 0c3c
00000360: a2f1 82be 4b5c 1dbd e707 e7bc bd1e f0bc
00000370: e425 79bd 3c8d 1f3d 15eb 42bd 37f3 513e
00000380: 27d2 79be 1339 22be 92fb 00bd c3f1 39bc
00000390: 4969 8ebd ad76 1dbe 7a23 093d 4c49 643d
000003a0: 4be0 6a3c da1e 42bd f3b6 9ebd 4aa0 00bc
000003b0: b39c 90bd 98a5 f53c 370a 2bbc e138 14bd
000003c0: 4110 8dbe c87f 10be 09e7 ff3c 3c99 38bd
000003d0: eb6a f8bc 7181 0a3e 0728 dbbe 8de6 84bc
000003e0: 370a 5cbe ab2a 37bd 3dc8 6b3c edd5 f7bd
000003f0: 71ca 593d 8ca7 aeb9 b8e3 92bd 2d01 03bd

layers.4.weight f4 [256, 256]
-0.038096868 0.029311553 -0.07995246 0.035926785 0.035746757 -0.27207428 0.11662955 0.17910887
-0.1089109 -0.18153112 -0.020660723 0.23088844 -0.15497598 -0.47782198 0.24471007 0.01274778
-0.015727093 0.005730179 0.021272074 0.030176237 -0.057515867 -0.017086193 -0.08322603 0.29188216
0.0012395155 -0.38928562 0.02393258 -0.038828097 0.021014944 -0.04832286 0.2761405 -0.06417807
-0.026319787 0.15656412 -0.1637545 -0.02245473 0.10084992 -0.0069778836 -0.30802855 0.16403846
-0.019174848 0.6423486 0.0137736285 0.045864448 -0.007150225 0.0034409629 -0.024461374 -0.048291944
0.03291357 0.058560055 0.21866885 0.08395505 -0.021377856 -0.1428094 -0.011656562 0.07631803
-0.01946576 -0.008621466 0.0024710137 -0.026268886 -0.72002524 0.0014964688 0.3063203 -0.07679232
-0.019339597 0.06480185 -0.07370995 -0.008267962 0.031172179 -0.6478405 -0.031974927 -0.024161186
0.014895529 -0.050954256 0.05066876 0.059244003 0.0337159 0.022071958 -0.18910515 -0.04724049
-0.071127586 -0.01734355 -0.06600699 -0.0368766 0.020608459 0.075137384 0.14398849 -0.053417925
-0.22794035 0.6498395 0.09031067 0.024293605 0.06744538 0.005197427 -0.1446262 0.04967621
-0.008080213 0.03151279 0.01780275 0.0076318206 0.05260954 0.054898024 -0.19534408 0.04303169
-0.042464484 -0.016506998 0.045865174 -0.028025828 0.014106713 0.10307193 -0.06723181 -0.24109714
0.01137659 0.056152727 0.087154046 0.007411942 0.054628007 0.03560515 0.0631938 0.006516372
-0.018525396 -0.011985292 0.012494297 0.1616406 0.000741335 -0.03792595 -0.06898515 0.042539444
-0.026727268 0.16679056 0.055601627 0.15234974 0.15850876 0.1736721 -0.016940705 0.2891837
-0.06453347 -0.16880746 -0.17997614 -0.03598357 -0.041223776 0.006085522 0.11060795 0.031593442
0.028152904 0.053549975 0.013374251 -0.11137077 -0.02972424 0.015285842 -0.18872502 0.062883556
0.058666136 0.17280592 0.048880648 0.14514294 -0.01586891 0.022173846 0.14458342 -0.18739983
0.32150215 -0.006180666 -0.020997776 0.058778513 -0.13578425 -0.19435209 -0.04658393 0.019169224
0.0016671888 0.049049817 -0.124855526 -0.026063763 -0.022602476 -0.0012175201 -0.11793787 0.071768925
0.113898 0.0035962246 0.063064404 0.16220519 0.004109989 0.05730359 0.03550408 -0.18507122
-0.010923713 -0.34422418 0.13609682 -0.027490668 -0.35129476 -1.1165494 -0.041406773 0.2117707
-0.010768162 0.01160598 0.23981278 -0.026154263 -0.33882415 -0.021112483 0.0014361974 -0.019782592
0.05795492 -0.18869732 -0.026750721 -0.6400189 -0.011476206 0.011056235 0.18862137 -0.09561813
0.07078956 -0.7974491 0.025618736 0.068135105 -0.055215932 -0.057851955 0.049113356 0.055913825
0.30824485 0.0038845509 -0.036996216 -0.012740085 -0.021218373 0.2312779 -0.019900411 -0.1787882
0.463887 -0.005843822 -0.050075226 0.0034766735 0.03782493 0.08022456 -0.0067406967 0.07429678
-0.015751094 -0.3301563 0.020265333 0.053180184 0.00021116041 0.04458611 0.049045667 -0.40668586
-0.41513792 -0.09453643 -0.17641279 -0.052916743 0.03665208 0.30625305 -0.283208 0.037177913
0.6918895 -0.024704551 0.0053427317 -0.21775736 0.006195247 0.0053997445 0.08574753 -0.025580421
00000000: 760b 1cbd c81e f03c 1ebe a3bd f727 133d
00000010: 316b 123d 524d 8bbe 79db ee3d 5168 373e
00000020: ae0c dfbd 4be3 39be ad40 a9bc 056e 6c3e
00000030: 06b2 1ebe 15a5 f4be 4795 7a3e 11dc 503c
00000040: 1bd6 80bc 3ac4 bb3b c642 ae3c 2834 f73c
00000050: c295 6bbd 58f8 8bbc 6972 aabd 9471 953e
00000060: 3d77 a23a 7250 c7be 420e c43c 360a 1fbd
00000070: 8827 ac3c 31ee 45bd 4a62 8d3e cb6f 83bd
00000080: 989c d7bc 5852 203e 42af 27be fbf2 b7bc
00000090: 678a ce3d bba6 e4bb ebb5 9dbe b3f9 273e
000000a0: 9214 9dbc f570 243f c9aa 613c 5cdc 3b3d
000000b0: 6f4c eabb c781 613b 3863 c8bc c6cd 45bd
000000c0: 61d0 063d abdc 6f3d baea 5f3e a0f0 ab3d
000000d0: 9d20 afbc a13c 12be 2afb 3ebc a14c 9c3d
000000e0: a876 9fbc 0d41 0dbc bbf0 213b d931 d7bc
000000f0: 9353 38bf 2925 c43a 04d6 9c3e 4b45 9dbd
00000100: 136e 9ebc d5b6 843d 3ef5 96bd 5976 07bc
00000110: cc5c ff3c e0d8 25bf 24f8 02bd aeed c5bc
00000120: 600c 743c 69b5 50bd 0c8a 4f3d d7a9 723d
00000130: af19 0a3d 40d0 b43c c8a4 41be 3e7f 41bd
00000140: 57ab 91bd 1014 8ebc ac2e 87bd eb0b 17bd
00000150: 12d3 a83c a1e1 993d b871 133e c1cc 5abd
00000160: 3269 69be e25b 263f cdf4 b83d 6203 c73c
00000170: ce20 8a3d 2d4f aa3b e418 14be 4879 4b3d
00000180: df62 04bc 8e13 013d 13d7 913c 5a14 fa3b
00000190: 1a7d 573d c0dc 603d 4708 48be ff41 303d
000001a0: 3def 2dbd af39 87bc 1fdd 3b3d 6c96 e5bc
000001b0: d81f 673c 6017 d33d d5b0 89bd 2be2 76be
000001c0: e064 3a3c 6700 663d d27d b23d e0df f23b
000001d0: 9ec1 5f3d b5d6 113d c06b 813d 4a87 d53b
000001e0: 92c2 97bc f55d 44bc e1b4 4c3c 1d85 253e
000001f0: 2656 423a 3e58 1bbd 1648 8dbd d73d 2e3d
00000200: 25f3 dabc 25cb 2a3e 88be 633d 9201 1c3e
00000210: 1f50 223e 19d7 313e 3cc7 8abc e30f 943e
00000220: 202a 84bd dddb 2cbe aa4b 38be 8263 13bd
00000230: 43da 28bd 0f69 c73b 6c86 e23d 2068 013d
00000240: eba0 e63c 3857 5b3d ad1f 5b3c 5c16 e4bd
00000250: 4080 f3bc 7871 7a3c 2241 41be 18c9 803d
00000260: e74b 703d 09f4 303e 1337 483d 5aa0 143e
00000270: 84ff 81bc eda5 b53c ad0d 143e bee5 3fbe
00000280: ee9b a43e 2f87 cabb 8703 acbc bdc1 703d
00000290: 070b 0bbe 3c04 47be cace 3ebd c708 9d3c
000002a0: 9385 da3a 76e8 483d 41b4 ffbd ac83 d5bc
000002b0: d428 b9bc 3295 9fba 6989 f1bd 96fb 923d
000002c0: 5b43 e93d a3ae 6b3b e927 813d 1e19 263e
000002d0: 16ad 863b 2bb7 6a3d ba6c 113d 4f83 3dbe
000002e0: 60f9 32bc 273e b0be f75c 0b3e 1c34 e1bc
000002f0: e8dc b3be 17eb 8ebf 269a 29bd 6bda 583e
00000300: f26c 30bc 0227 3e3c 7b91 753e 7741 d6bc
00000310: 5c7a adbe 16f4 acbc ca3e bc3a 1a0f a2bc
00000320: 2362 6d3d df39 41be 5424 dbbc 47d8 23bf
00000330: b206 3cbc 3625 353c f625 413e 70d3 c3bd
00000340: 1efa 903d a025 4cbf 62de d13c 6b8a 8b3d
00000350: 1a2a 62bd 2cf6 6cbd 162b 493d e505 653d
00000360: 45d2 9d3e f393 7e3b 5889 17bd cabb 50bc
00000370: 27d2 adbc 1dd4 6c3e 3006 a3bc 4114 37be
00000380: 9982 ed3e 887d bfbb ae1b 4dbd e7d8 633b
00000390: 50ee 1a3d c64c a43d 10e1 dcbb e928 983d
000003a0: 7008 81bc 3f0a a9be 7c03 a63c 77d3 593d
000003b0: f16a 5d39 ed9f 363d 1ce4 483d 2139 d0be
000003c0: f58c d4be 519c c1bd 8ea5 34be 3abf 58bd
000003d0: 7e20 163d 33cd 9c3e a400 91be de47 183d
000003e0: ac1f 313f 3361 cabc 1512 af3b c9fb 5ebe
000003f0: 8001 cb3b 57f0 b03b 679c af3d 088e d1bc

layers.4.bias f4 [256]
-0.114388265 -0.40999836 -0.3345176 -0.045835145 -0.43758348 -0.2952274 0.1555463 -0.2142703
-0.0602142 -0.3488125 0.211112 -0.08637043 -0.025002856 -0.043664984 0.06879938 -0.287104
-0.017733911 0.013872988 -0.02202567 -0.058298025 0.072740644 -0.07622614 -0.051388375 0.05325331
-0.23651114 -0.16207957 -0.4423642 -0.006250512 -0.13007247 0.094641775 0.025110766 -0.057200745
-0.025871843 -0.043783892 -0.013241196 0.13224076 -0.4001716 -0.008152122 -0.048430335 -0.21577765
-0.13244961 0.054261588 -0.019037891 -0.21264853 -0.019829221 -0.43068555 -0.17000769 -0.081938945
0.12262501 -0.08290376 -0.1526325 -0.08448642 -0.5534336 -0.48590446 -0.01025032 -0.0023402188
-0.3318883 -0.46160313 0.24758022 -0.0631305 0.33947447 -0.08370964 -0.0076315654 0.0014254468
-0.006254622 0.017324187 0.2502437 -0.24765366 0.124566875 -0.39573264 -0.038573842 -0.10647177
0.04041978 -0.45500603 0.001289293 0.2616834 0.32145786 -0.22127892 0.0073251696 -0.07431558
-0.10063163 -0.21720845 0.028853288 -0.03357362 -0.5953639 0.010010816 -0.052458256 -0.06237288
0.048519857 -0.11380768 -0.07068906 -0.409436 0.065523565 0.07803464 -0.0034800814 0.32655215
-0.05064357 -0.5700174 -0.44227758 -0.05521137 -0.023539497 -0.058540534 -0.106578976 0.109671965
-0.046709724 0.17471157 -0.51922184 -0.09072598 -0.083878584 -0.23754834 -0.07778159 0.12845807
0.118032925 -0.09794904 -0.025832463 -0.015706347 -0.018030308 -0.15441686 0.0795392 -0.088333756
0.28238317 0.113548405 -0.06118499 0.11575854 -0.3098817 -0.048137326 -0.27048042 -0.14413562
-0.09353672 0.10353983 -0.756065 -0.35187513 0.32072875 -0.088468514 -0.1013367 -0.086626746
0.10700212 -0.3725258 0.18354397 -0.08030688 0.015356923 0.027463598 0.14078233 -0.21788566
-0.028791482 -0.2326317 -0.04572189 -0.20365681 -0.20813332 -0.07798303 -0.062468488 0.118943885
0.06472532 0.06680591 -0.11098365 -0.2635839 -0.25187066 0.18364482 -0.045848966 -0.34681112
-0.20562105 -0.5110432 -0.08137027 -0.07283043 -0.00043247055 -0.0018121542 -0.21365786 -0.29817954
-0.083114356 -0.01820053 0.036859166 -0.19606234 0.18746383 0.149502 -0.011884281 -0.106853284
-0.28397828 -0.08501377 -0.4690554 -0.051225312 -0.3250807 0.011915373 -0.3748185 0.27759582
-0.10742298 0.32737625 -0.05168572 -0.07759756 -0.25622177 0.042301197 -0.20632328 0.19526836
-0.46122867 -0.061873488 -0.0379786 -0.049136426 -0.48495907 -0.04365708 -0.0117643885 -0.045468975
-0.37040526 -0.017955614 -0.058102537 -0.31883153 -0.08229911 -0.42110708 -0.046786666 0.0063811727
-0.1475964 -0.02420861 -0.040818136 0.047909196 0.1473163 0.02339276 -0.064729854 -0.092549264
0.25470462 -0.29854357 -0.03299813 -0.40486008 -0.32894346 0.1921148 -0.065734394 -0.39490297
-0.17216039 -0.086568065 -0.017528435 -0.03979975 0.10881369 -0.0038425005 -0.07279432 0.19933638
-0.09054444 0.023649152 -0.08856808 -0.24368395 -0.07580388 -0.021166515 -0.13045691 0.17710641
-0.06482983 -0.32939404 0.031237554 -0.11492805 0.02618488 -0.013400395 -0.019352464 -0.029343452
-0.2341341 -0.15700576 -0.086797796 0.24188317 -0.05908191 0.30574578 -0.069627374 -0.23622447
00000000: 6544 eabd 4eeb d1be e445 abbe a2bd 3bbd
00000010: f10a e0be 0c28 97be 8747 1f3e ac69 5bbe
00000020: 2aa3 76bd 8d97 b2be be2d 583e fbe2 b0bd
00000030: cad2 ccbc 0eda 32bd b0e6 8c3d 4cff 92be
00000040: b546 91bc 874b 633c 2e6f b4bc e9c9 6ebd
00000050: 0cf9 943d 731c 9cbd 9e7c 52bd 2520 5a3d
00000060: fa2f 72be 30f8 25be 8f7d e2be 18d1 ccbb
00000070: b831 05be 8cd3 c13d 18b5 cd3c 544b 6abd
00000080: 30f1 d3bc bd56 33bd 9af1 58bc 1f6a 073e
00000090: 4be3 ccbe 7a90 05bc e35e 46bd d1f4 5cbe
000000a0: dfa0 07be 6641 5e3d 5af5 9bbc 89c0 59be
000000b0: e470 a2bc d182 dcbe 7f16 2ebe 9bcf a7bd
000000c0: d222 fb3d 72c9 a9bd b24b 1cbe 3707 adbd
000000d0: d3ad 0dbf 78c8 f8be f5f0 27bc 5b5e 19bb
000000e0: 43ed a9be 3f57 ecbe ab85 7d3e 904a 81bd
000000f0: 99cf ad3e f66f abbd 3612 fabb 0fd6 ba3a
00000100: 92f3 ccbb 74eb 8d3c f11f 803e ec98 7dbe
00000110: eb1c ff3d 789d cabe 9bff 1dbd df0d dabd
00000120: 368f 253d 8df6 e8be 7ffd a83a 5efb 853e
00000130: 2096 a43e f196 62be fa07 f03b c432 98bd
00000140: f517 cebd e46b 5ebe bb5d ec3c 7e84 09bd
00000150: c569 18bf 6804 243c 78de 56bd b47a 7fbd
00000160: c2bc 463d 0014 e9bd 6dc5 90bd 98a1 d1be
00000170: 3831 863d a0d0 9f3d 1412 64bb d831 a73e
00000180: a26f 4fbd a9ec 11bf 3572 e2be 5125 62bd
00000190: e7d5 c0bc 33c8 6fbd 1446 dabd b29b e03d
000001a0: b252 3fbd 97e7 323e b9eb 04bf 8bce b9bd
000001b0: 89c8 abbd df3f 73be f44b 9fbd 838a 033e
000001c0: 3fbb f13d 8299 c8bd 9a9e d3bc 99aa 80bc
000001d0: 4cb4 93bc 741f 1ebe 73e5 a23d 54e8 b4bd
000001e0: 8794 903e 118c e83d 1d9d 7abd d012 ed3d
000001f0: d0a8 9ebe a52b 45bd 697c 8abe 4a98 13be
00000200: 2e90 bfbd b10c d43d 7a8d 41bf fa28 b4be
00000210: 8f36 a43e fb2e b5bd 9e89 cfbd 5d69 b1bd
00000220: ed23 db3d b4bb bebe f3f2 3b3e ef77 a4bd
00000230: 9b9b 7b3c 57fb e03c 3e29 103e 6b1d 5fbe
00000240: 1ddc ebbc 0137 6ebe e046 3bbd 698b 50be
00000250: e720 55be 91b5 9fbd f5de 7fbd da98 f33d
00000260: b58e 843d 89d1 883d 654b e3bd 78f4 86be
00000270: 31f5 80be 630d 3c3e 20cc 3bbd 3a91 b1be
00000280: 538e 52be bad3 02bf 75a5 a6bd 1f28 95bd
00000290: 37bd e2b9 ce85 edba 20c9 5abe fdaa 98be
000002a0: dc37 aabd 4719 95bc a3f9 163d 91c4 48be
000002b0: 85f6 3f3e 0d17 193e 4ab6 42bc e5d5 dabd
000002c0: 9a65 91be b31b aebd 0828 f0be a2d1 51bd
000002d0: fa70 a6be b238 433c 36e8 bfbe 0a21 8e3e
000002e0: 9400 dcbd dc9d a73e 68b4 53bd 78eb 9ebd
000002f0: 802f 83be 0544 2d3d 6946 53be 6ef4 473e
00000300: 2a26 ecbe 0e6f 7dbd 738f 1bbd 4743 49bd
00000310: 8e4c f8be c4d1 32bd 6cbf 40bc ad3d 3abd
00000320: c2a5 bdbe a717 93bc edfc 6dbd e33d a3be
00000330: 708c a8bd 599b d7be 60a3 3fbd 2819 d13b
00000340: 8323 17be 2351 c6bc eb30 27bd 6f3c 443d
00000350: 16da 163e 2ca2 bf3c 1691 84bd 788a bdbd
00000360: a568 823e b4da 98be 0c29 07bd d249 cfbe
00000370: 476b a8be beb9 443e c19f 86bd b930 cabe
00000380: d04a 30be 994a b1bd cb97 8fbc 1005 23bd
00000390: b6d9 de3d 76d2 7bbb 3015 95bd d61e 4c3e
000003a0: 5d6f b9bd debb c13c 2e63 b5bd 4988 79be
000003b0: 113f 9bbd 6665 adbc 7f96 05be 625b 353e
000003c0: 80c5 84bd 56a6 a8be e6e5 ff3c 665f ebbd
000003d0: ac81 d63c 558d 5bbc 0f89 9ebc ae61 f0bc
000003e0: d9c0 6fbe 1ec6 20be 0bc3 b1bd 39b0 773e
000003f0: dfff 71bd b68a 9c3e cc98 8ebd d4e4 71be

layers.6.weight f4 [256, 256]
0.03866311 -0.021817464 -0.08464309 0.017365893 0.09653525 0.0074239546 -0.023472993 0.02472304
0.05011894 -0.10336302 0.008733298 -0.02619889 0.03582919 0.011549374 -0.05173326 -0.039716516
0.0323306 0.0022494206 -0.053765662 -0.034505397 0.036704622 0.041986346 0.009513718 0.035112318
-0.048843388 -0.007105815 -0.0059933383 -0.10910377 -0.039068073 0.003729507 0.11832061 0.021943314
-0.02558224 -0.17796674 -0.018567473 -0.08468467 -0.02143613 0.028012153 0.010062552 -0.24929951
0.0027770705 0.005995456 -0.028592052 -0.3739024 0.028509641 0.15255597 -0.011625012 -0.0426782
0.13779275 0.010332494 0.020410143 0.00085435214 0.012454008 -0.17107792 0.016728692 -0.022508381
0.3407841 -0.07562045 -0.017715517 -0.0012718352 0.17062871 0.005537689 -0.07014456 0.037386697
0.07504999 -0.035727162 -0.08789523 0.008321902 0.065711915 0.13874866 0.07625556 -0.039800745
-0.026267346 -0.028401738 -0.081156045 0.008224028 0.0006555454 -0.02342032 0.16889887 0.01799327
-0.2563961 0.045309316 0.040044095 -0.025233498 0.05850804 -0.023564698 -0.013973567 -0.041821305
0.059488382 0.09733085 -0.04934799 -0.012342904 0.00575478 0.1306423 -0.097988494 -0.069455
-0.0273594 -0.20373562 -0.08823481 -0.11067763 0.043847468 0.03171445 -0.028804442 -0.0013191865
-0.02674989 -0.010586954 -0.03273441 0.0018111904 -0.0053415787 0.041423704 -0.005065108 -0.03360777
0.10857382 -0.004471793 0.066923395 0.022135463 0.018784268 -0.06678034 -0.022407278 0.0045480095
0.041533362 -0.065784685 -0.0284084 -0.12721205 -0.101552375 0.0035847581 -0.34628725 -0.03905055
-0.031766836 0.07119489 0.07861636 0.060841877 -0.07733155 -0.07243818 -0.084556915 -0.015862346
-0.014247739 -0.1140205 -0.17075382 -0.048034806 -0.12792835 -0.05557879 -0.078857794 -0.14281343
0.0337428 0.075235955 -0.002654111 0.020599125 -0.21644467 0.051029403 -0.04564176 -0.046136376
-0.13613313 0.04861891 -0.025012143 -0.16716285 0.10899779 -0.13305826 -0.015317537 -0.072875574
0.035075378 -0.3443036 0.02574748 -0.1316949 0.0025116557 -0.060597263 -0.29932112 0.012088787
0.0069105374 0.015069762 0.20642975 -0.043319035 -0.0017205206 0.32941347 -0.06418688 -0.0423664
0.049512316 0.029860737 0.5345114 -0.017934617 -0.021344265 0.14243838 -0.0035815623 0.074029244
-0.0016106378 0.10059803 0.046205677 0.05541866 0.016231218 0.06830989 -0.03503571 0.121687144
-0.08481918 0.019669153 -0.013274094 0.03143005 -0.089544326 -0.05758029 0.0577987 0.04931543
0.005395006 0.0014253384 -0.1791595 0.27375868 0.017785335 -0.20069765 -0.040530354 0.0017809778
-0.0021754059 -0.052473158 0.022671547 0.19225197 -0.009809645 0.05756449 0.011350073 0.03842518
-0.06297635 -0.44245532 -0.107696526 0.0009897528 -0.042917028 -0.009226237 0.01428901 0.08586525
0.055527203 -0.029681511 -0.007690147 0.017520083 0.07809032 -0.0056009023 0.03889136 -0.08239331
0.043276414 -0.0086872475 -0.035697717 -0.040004145 -0.026457958 0.048527036 -0.047509138 -0.11925134
0.06218742 0.025048876 0.13193183 -0.043613005 0.10996005 0.03789159 0.038474184 -0.058691986
0.038553998 -0.42394012 -0.07270161 -0.028868688 0.007893282 -0.037716415 -0.07636254 -0.017558346
00000000: 365d 1e3d 8aba b2bc 5b59 adbd eb42 8e3c
00000010: 46b4 c53d a544 f33b 6f4a c0bc f987 ca3c
00000020: 8549 4d3d feaf d3bd 1b16 0f3c 0e9f d6bc
00000030: a1c1 123d 9639 3d3c 41e6 53bd c9ad 22bd
00000040: 176d 043d 046b 133b 6239 5cbd 8855 0dbd
00000050: 9657 163d e0f9 2b3d 6ddf 1b3c efd1 0f3d
00000060: 0110 48bd e6d7 e8bb c463 c4bb cc71 dfbd
00000070: d805 20bd bf6a 743b 1352 f23d 77c2 b33c
00000080: d991 d1bc ea3c 36be d01a 98bc 286f adbd
00000090: d39a afbc be79 e53c 67dd 243c 5f48 7fbe
000000a0: 83ff 353b 8875 c43b e139 eabc 2370 bfbe
000000b0: 0d8d e93c a237 1c3e d676 3ebc 56cf 2ebd
000000c0: 8b19 0d3e 9f49 293c 2c33 a73c 9af6 5f3a
000000d0: e50b 4c3c 0d2f 2fbe 9c0a 893c 7f63 b8bc
000000e0: 417b ae3e e5de 9abd 2220 91bc b5b3 a6ba
000000f0: 4bb9 2e3e 8175 b53b f3a7 8fbd cb22 193d
00000100: cfb3 993d a556 12bd 6a02 b4bd 9658 083c
00000110: f893 863d 2114 0e3e e02b 9c3d 1b06 23bd
00000120: 9e2e d7bc c3aa e8bc 2435 a6bd 13be 063c
00000130: e8d8 2b3a f9db bfbc d3f3 2c3e 9f66 933c
00000140: 5a46 83be 4396 393d 4705 243d 7bb6 cebc
00000150: 20a6 6f3d c10a c1bc 63f1 64bc d14c 2bbd
00000160: 17aa 733d 6655 c73d 1e21 4abd e439 4abc
00000170: 9892 bc3b 18c7 053e 31ae c8bd 6c3e 8ebd
00000180: d220 e0bc 12a0 50be 74b4 b4bd f4aa e2bd
00000190: 6799 333d 03e7 013d 4bf7 ebbc 8ee8 acba
000001a0: 9622 dbbc e774 2dbc 8414 06bd 7765 ed3a
000001b0: 6908 afbb e7ab 293d 35f9 a5bb 4da8 09bd
000001c0: f35b de3d 1e88 92bb 220f 893d 6e55 b53c
000001d0: 77e1 993c 22c4 88bd 788f b7bc 7807 953b
000001e0: e31e 2a3d 1fba 86bd bcb8 e8bc e043 02be
000001f0: b1fa cfbd 43ee 6a3b 904c b1be 78f3 1fbd
00000200: f11d 02bd a0ce 913d 9d01 a13d 5535 793d
00000210: 0160 9ebd 785a 94bd 2d2c adbd c0f1 81bc
00000220: 596f 69bc 9483 e9bd 17da 2ebe 25c0 44bd
00000230: a6ff 02be 96a6 63bd 3280 a1bd af3d 12be
00000240: e435 0a3d 4f15 9a3d 98f0 2dbb 7fbf a83c
00000250: aca3 5dbe 3504 513d dbf2 3abd 7ff9 3cbd
00000260: 7c66 0bbe 9f24 473d 44e6 ccbc bd2c 2bbe
00000270: 3c3a df3d 6d40 08be 68f6 7abc ca3f 95bd
00000280: 33ab 0f3d 9048 b0be 61ec d23c 07db 06be
00000290: 979a 243b d634 78bd 9e40 99be 0c10 463c
000002a0: ca71 e23b 2ae7 763c 5262 533e 4d6f 31bd
000002b0: 1783 e1ba e2a8 a83e 6974 83bd 6488 2dbd
000002c0: 6dcd 4a3d 819e f43c bdd5 083f 9eeb 92bc
000002d0: 2bda aebc 5edb 113e a5b8 6abb a59c 973d
000002e0: 091c d3ba 5706 ce3d 2a42 3d3d adfe 623d
000002f0: 55f7 843c 0ee6 8b3d 9b81 0fbd 1c37 f93d
00000300: aeb5 adbd 3421 a13c 967b 59bc ccbc 003d
00000310: 0463 b7bd 4fd9 6bbd 54be 6c3d fafe 493d
00000320: 97c8 b03b 6cd2 ba3a 9775 37be 192a 8c3e
00000330: 8db2 913c af83 4dbe 2803 26bd b36f e93a
00000340: 4191 0ebb 18ee 56bd aeb9 b93c b3dd 443e
00000350: a2b8 20bc bec8 6b3d a8f5 393c b963 1d3d
00000360: bff9 80bd 8189 e2be ff8f dcbd 98ba 813a
00000370: c4c9 2fbd a529 17bc 741c 6a3c 1fda af3d
00000380: 7e70 633d a426 f3bc a1fd fbbb 4786 8f3c
00000390: d1ed 9f3d c687 b7bb 8c4c 1f3d d3bd a8bd
000003a0: 9c42 313d f554 0ebc c537 12bd 63db 23bd
000003b0: 5cbe d8bc 49c4 463d f198 42bd 0c3a f4bd
000003c0: 3cb8 7e3d 4d33 cd3c 2319 073e 8da3 32bd
000003d0: bc32 e13d 3634 1b3d 1b97 1d3d 0267 70bd
000003e0: ccea 1d3d ae0e d9be 95e4 94bd 077e ecbc
000003f0: d352 013c 877c 1abd f763 9cbd 85d6 8fbc
